common/onnx_utils/sample_models/yamnet_256_64x96_tl.onnx (onnx, 549615 bytes, 24 tensors)

model_1/sequential_2/model_2/layer6/pointwise_conv/Conv2D_weights_fused_bn f4 [256, 256, 1, 1]
000000 10 8e 20 bd 7f 7e 8d 3a be 31 ed 3c 87 89 67 bd
       -0.03919798 0.0010795145 0.028954383 -0.05652764
000010 a4 2b f2 3c fc 96 d6 3d e0 76 70 3d 50 ee e7 3c
       0.029561825 0.10478017 0.058707118 0.028311878
000020 07 05 44 bc 29 0a 34 bd c7 d7 10 bd 53 bd 52 bd
       -0.011964089 -0.043955002 -0.03536203 -0.051450085
000030 7a 68 ed 3b 17 d7 11 3d 69 db ca 3b c1 af e0 3d
       0.0072451206 0.035605516 0.0061907065 0.109710224
000040 c5 8a 83 3d 46 76 f6 bc c1 c8 0d bd c4 65 15 be
       0.064229526 -0.030085694 -0.034615282 -0.14589602
000050 5a f3 47 3d b7 d0 24 3a 25 a3 5f bd c1 08 4f bd
       0.048816063 0.00062872045 -0.054598946 -0.050545458
000060 24 84 11 bd 3b bc 86 bc aa d4 0e 3e 32 22 79 3b
       -0.03552641 -0.016447177 0.13948312 0.0038014767
000070 9a 5b 77 3c 9d 2c de 3a b2 e8 ba bd c1 f9 f5 3d
       0.015097523 0.0016950552 -0.09126414 0.120105274
000080 da 88 b9 bc 4e 42 cc bd 80 1a 41 bc 50 c0 ec bb
       -0.022648264 -0.09973584 -0.011786103 -0.007225074
000090 a3 13 3e bb 72 d5 7b bc ca 19 61 bd db 73 79 3d
       -0.0029003404 -0.015370714 -0.054956235 0.060901504
0000a0 1a 8d e3 3c c9 98 fb bd ca 7d 37 3d 0a 70 96 3d
       0.027777243 -0.12285001 0.044797696 0.073455885
0000b0 c3 09 e4 3c 35 39 8b 3c eb 99 fd bc 40 15 ff bd
       0.027836686 0.016995052 -0.030957183 -0.12455225
0000c0 3e 69 62 3b b3 09 c3 3d 92 9e e1 3d d7 bc cf 3c
       0.0034547593 0.09523334 0.11016573 0.0253586
0000d0 42 4b fb bc f6 14 0c 3e 5a 76 a8 bb 80 f9 28 3d
       -0.030675534 0.13679871 -0.0051410617 0.041253567
0000e0 c1 05 fd bd 97 40 1e 3d 7c 31 ac bc e7 06 9e 3d
       -0.12354613 0.038635816 -0.02101969 0.0771616
0000f0 a7 22 d5 3d 69 6a 82 bd dd 6d 29 3d 68 8a 3f be
       0.10407 -0.063679524 0.04136454 -0.18705142
000100 0d 06 af bd 87 42 cd 3d 1f be e2 3d 48 0d 08 3e
       -0.08546076 0.10022455 0.11071419 0.13286316
000110 04 da 85 3d 39 47 3e bd 2d d0 3c 3d 1d d9 42 3d
       0.06535724 -0.046454642 0.04609697 0.047570337
000120 2c 51 01 3c 82 6b db 37 55 70 2d be cc 54 fe bd
       0.007892888 2.6156897e-05 -0.16937383 -0.124185175
000130 59 09 39 bd ab b9 d4 bd ab 9f 75 3b ba a6 da bd
       -0.04517493 -0.10386976 0.0037479203 -0.10676332
000140 a4 d6 27 3d 01 c4 f6 3b 84 91 d2 3c 2a 93 a2 bb
       0.04097618 0.0075306897 0.025704153 -0.004961391
000150 e7 07 0d 3c bd c5 56 3d 16 26 10 3c 61 22 1a 3d
       0.008607841 0.05243467 0.008798143 0.037630443
000160 7b fb 1c 3e 7e 3d be bd fc 8d cf 3c 14 95 d2 3d
       0.15330307 -0.092890725 0.025336258 0.10282341
000170 ae ad 36 bd c2 0c b3 bc 56 8d 0d 3e 70 35 62 3d
       -0.044599228 -0.02185667 0.13823447 0.055226743
000180 2f 90 53 3b 81 32 a8 bd 4f da 74 bd f0 7a 8e 3a
       0.0032281985 -0.08212758 -0.059778508 0.0010870378
000190 70 f5 94 3d 78 e1 1c bd 2b dd cc bc 6c 6b 09 3e
       0.07273376 -0.03830096 -0.025007805 0.13419884
0001a0 f3 28 90 bd 63 a8 03 3c ac 43 9b bd 43 f4 af bc
       -0.070390604 0.008035752 -0.07581267 -0.021478778
0001b0 8f 2d c1 3c 73 b0 ca 3b ad b9 8a 3d 01 cf 5e 3d
       0.023581294 0.006185585 0.06773696 0.054396633
0001c0 94 ac f9 3b 85 6f 07 3d d3 37 a9 3c 33 c8 69 bd
       0.00761945 0.033065338 0.020656502 -0.05707569
0001d0 e9 7b 0d be ea f8 12 bd f0 d2 2d bd 54 c2 67 3c
       -0.13816799 -0.035881914 -0.042437494 0.0141454525
0001e0 ea 27 62 be 8e cb 07 be 30 f5 7c bd ec 6d 2c 3d
       -0.22085539 -0.13261244 -0.061757267 0.042097017
0001f0 fd 1d 2e bc 3f 8e 47 bc 34 15 9e 3b 06 f6 8d bd
       -0.010627267 -0.01217991 0.004824305 -0.06931691
000200 78 f7 a4 bd 44 a2 b5 3c c5 d3 87 bd e1 9b e9 bc
       -0.080550134 0.0221721 -0.06632189 -0.028516712
000210 ff d3 db 3d 96 6f 61 bd 31 d1 c7 bb 29 ab f7 bd
       0.107337944 -0.055038057 -0.0060979356 -0.12093193
000220 dc 5c 44 3c 0f 2f 93 bc c1 53 0c bd c4 e2 29 bd
       0.01198503 -0.017966775 -0.03425956 -0.041476026
000230 d5 95 2f bd d7 da cf 3c 60 54 d0 3d 3e ab 0f be
       -0.0428675 0.025372906 0.10172343 -0.14030167
000240 a3 1f 80 3d 4c fb a9 3d d7 48 88 bd 1f e6 4f 3d
       0.06256034 0.08299884 -0.06654518 0.05075657
000250 6d 18 87 bd ae f1 ce 3d 54 51 56 3d e8 6e b3 bd
       -0.06596456 0.101046905 0.052323654 -0.08761388
000260 06 b6 d8 3b a0 dd a7 3d ab 07 47 bd 29 8d bb 3d
       0.0066134958 0.081965685 -0.048591297 0.091577835
000270 5a 0f 12 3d 1d 1c 92 3d 77 d7 e2 bd f6 e9 97 bd
       0.03565917 0.071342684 -0.11076253 -0.074176714
000280 7c 33 9e bd 13 ad c0 3d 9d 95 82 bd be f0 75 bc
       -0.077246636 0.09408011 -0.06376193 -0.015011011
000290 a2 c0 b5 3d 84 7d 4a 3d 84 75 46 bd 44 82 a3 bc
       0.088746324 0.049436107 -0.048451915 -0.019959576
0002a0 6d cb 12 3d 7a ec d5 3c f9 d4 bb bd be 4b c1 3c
       0.035838533 0.026113737 -0.09171481 0.023595687
0002b0 f0 a7 ef bc e6 3e 54 bc d6 8b 1a bd b6 80 b0 ba
       -0.029254884 -0.012954449 -0.037731014 -0.0013466093
0002c0 d8 5a b3 bd a6 57 bd 3d 18 c4 83 3d c3 8f b3 bd
       -0.087575614 0.09245233 0.06433886 -0.08767655
0002d0 3e 63 9c bd 55 ef cf bd c3 80 ee 3d 63 f8 da 3a
       -0.076361164 -0.10153071 0.11645653 0.0016706105
0002e0 ae 13 b8 3b dc 1d 0b 3d 94 51 35 bc 28 3e 5b be
       0.0056175804 0.033964023 -0.011066813 -0.2141043
0002f0 c3 bc bc bd d9 9d 24 3d 1a 67 96 bd a3 c2 81 3c
       -0.09215691 0.040189598 -0.07343884 0.01583988
000300 58 85 2c 3c 93 64 2a bb 7b 24 59 3d 7d 0a b1 bc
       0.0105298385 -0.0025999888 0.053013306 -0.021611447
000310 83 70 6d bd b8 30 d6 3c ec e9 39 3c ac bd 30 3c
       -0.057968628 0.026146278 0.011347275 0.010787409
000320 d6 36 89 bc 2a 63 35 3d 0f 33 9c bb 86 03 54 3c
       -0.01674978 0.044284023 -0.004766829 0.012940293
000330 30 d5 0d bc b3 f9 aa bd 46 bc 04 bc 1d 63 5f bc
       -0.008656785 -0.083484076 -0.0081015285 -0.01363447
000340 be ce e6 bd f5 db db bd bb d0 b4 bd 78 9c bd bd
       -0.11269902 -0.10735313 -0.08828875 -0.0925836
000350 ee 96 d5 bc 80 d9 d5 3c 6c 54 06 3d 37 f5 be 3b
       -0.026072945 0.026104689 0.032795355 0.0058275717
000360 f9 a7 8f 3d 20 bc 11 3d a0 41 a8 3d 6c e0 46 bc
       0.0701446 0.0355798 0.08215642 -0.012138467
000370 c3 a8 13 bd 73 7f 43 3d fb bb 0f 3e 95 1b 9f 3d
       -0.036049616 0.047728967 0.14036553 0.07768933
000380 96 2b 1c bd 8d 48 d7 bc 63 90 0a 3d 8d e3 03 bc
       -0.038127504 -0.026279712 0.033829104 -0.008049858
000390 1a b9 db 3a 73 95 75 bd d1 72 0a 3c 60 2f 9d bc
       0.0016763539 -0.05995698 0.008450226 -0.01918763
0003a0 cb 42 b9 3c 57 09 3a be 7b 10 30 bd 64 a1 95 3d
       0.022614857 -0.18167625 -0.042984467 0.073061734
0003b0 a1 b6 a7 bd df c7 14 3e 20 1e 2e 3d d4 36 a8 3d
       -0.081891306 0.1452937 0.0425092 0.08213583
0003c0 87 c1 d6 bc e3 75 34 3d 81 b7 ee bc ed 6e c7 bb
       -0.026215328 0.044057738 -0.029140236 -0.0060862214
0003d0 bf c7 0c 3d 73 4a 3d 3a 87 47 79 3d 36 1c ad 3d
       0.03437018 0.00072208716 0.06085923 0.084526464
0003e0 2d ea 43 bd b5 91 9a bd 76 ad 8a 3d fa 43 a8 3c
       -0.04783075 -0.07547323 0.06771366 0.020540226
0003f0 b6 0e 1f 3d 53 47 eb bc 1b 81 39 3c 08 73 34 bd
       0.03883239 -0.028720533 0.011322285 -0.044055015

model_1/sequential_2/model_2/layer6/pointwise_conv/Conv2D_bias_fused_bn f4 [256]
000000 14 e5 91 3e 39 0d 9e be 66 63 c6 bd 6d 84 a1 be
       0.28495085 -0.30869463 -0.096869275 -0.31546345
000010 7e 0d 08 3e ec 13 cd 3e 2c 2c c0 3e 20 be b1 be
       0.13286397 0.40054262 0.375337 -0.34715366
000020 41 9f b2 3f 25 81 f1 3e 22 99 b6 be 7f 66 4d 3f
       1.395485 0.47168842 -0.35663706 0.8023452
000030 2f 88 57 bf 3a 06 63 3f fc 01 e0 be 7d 15 ff 3e
       -0.84192175 0.88681376 -0.43751514 0.49821082
000040 e8 af 7c 3e df aa 4d bf 5a f1 ba 3e 24 0e 7b 3e
       0.24676478 -0.80338854 0.36512262 0.24517113
000050 a3 b9 98 3d 14 39 2d bf 85 1c 4b bf 15 e3 64 bf
       0.074572824 -0.6766522 -0.7934039 -0.89409
000060 f2 1c bc 3e e3 8a 20 3f 78 e6 d7 be ed 00 a2 3f
       0.36740834 0.62711924 -0.4216802 1.2656533
000070 3a f8 89 3e 57 46 ab bf cb 38 3e bf fc 33 0a 3f
       0.26947194 -1.3380841 -0.7430541 0.5398557
000080 11 f2 bb be 76 9a 0f bf f7 f6 53 3d 25 03 d2 be
       -0.3670812 -0.56095064 0.051749196 -0.41018024
000090 6c e8 6d 3d 98 cf 8f 3d 53 75 74 bd 56 9c fd bd
       0.058082983 0.07022017 -0.0596822 -0.12383334
0000a0 6e 3f 27 bf 02 f4 97 3d e2 7f a5 bf 86 71 c2 3e
       -0.6533116 0.07419588 -1.2929652 0.37977237
0000b0 0e 5a 5a 3f fa 43 53 3d e9 51 57 3f dc f2 7f 3e
       0.8529366 0.0515785 0.8410936 0.24994987
0000c0 9f bb e7 be 00 88 0b 3e 3e 40 10 3e d9 a1 29 3f
       -0.4526033 0.13626099 0.14087006 0.66262585
0000d0 7b 18 07 3f 22 aa 90 3e 69 f0 2e bf 82 39 cb 3d
       0.5277173 0.282548 -0.68335587 0.09923078
0000e0 e5 ff 54 3f f4 03 9a be 98 fa 70 3e 7d 42 c4 3e
       0.83202964 -0.3008114 0.23533094 0.38331977
0000f0 25 a6 13 bf d6 39 9c 3e be 5b 9f 3e 46 9a 04 3f
       -0.5767539 0.30512875 0.3112468 0.517979
000100 4a 52 d9 be 4a 2c 27 3f 5a 5e a5 bd 24 a5 1b 3f
       -0.42445594 0.65301955 -0.08074637 0.6079886
000110 d8 14 d9 bd f4 2e 3b 3f 47 25 00 bf 85 d5 7e 3e
       -0.10599679 0.7311852 -0.5005688 0.24886139
000120 6a 14 ea 3e 44 e7 0d bf ee f0 17 3e d9 3f a4 be
       0.457187 -0.5543101 0.14838001 -0.32079962
000130 1b 70 a5 3e 42 b2 2f bd 81 24 19 3f ea d9 fd 3d
       0.32312092 -0.04289461 0.59821326 0.123950794
000140 d2 e6 99 3d a9 61 f6 be 01 40 d2 bd bc 63 29 bd
       0.075147286 -0.48121384 -0.10266114 -0.04135488
000150 6e 33 52 3f 4c a6 20 3e e3 f3 b5 3d c2 c6 46 bf
       0.82109725 0.15688437 0.08884408 -0.7764703
000160 8b 8e 93 be 2c de 6c bf dd d6 3b 3f 91 6e 08 3f
       -0.2881969 -0.9252651 0.7337473 0.5329371
000170 4c f1 32 bf 56 8b 57 3e d9 09 a7 be 1d 32 3d 3f
       -0.6989944 0.21049246 -0.326247 0.7390459
000180 84 56 a9 3d 9b 4b 28 3f 13 e7 f5 3e 43 47 88 3f
       0.08268455 0.65740365 0.48027858 1.0646747
000190 ce 06 a2 bf 24 7d a0 be 60 56 3b 3f 68 69 5f bc
       -1.2658327 -0.31345475 0.7317867 -0.013635971
0001a0 2e 06 cb 3e a6 55 2c 3f d9 84 d7 bf d1 0a 6a 3e
       0.39653152 0.6731819 -1.6837417 0.22855689
0001b0 2c 66 4f 3e 86 d4 9f bf 5d 1f e5 3e 36 06 cb 3d
       0.20253819 -1.2486732 0.4475049 0.09913294
0001c0 6d e6 32 3e 20 a5 0c 3b 9c 4b 12 3f d9 ea bf be
       0.17470713 0.0021460727 0.5714662 -0.37483862
0001d0 fc 99 2e be ff d3 87 3e 48 37 e3 be 7a a0 fc be
       -0.17050928 0.26528928 -0.44378114 -0.49341184
0001e0 38 11 9b 3e 9a 2e e4 bd b5 a9 52 3e 0c 65 ee bd
       0.30286574 -0.11141701 0.2057255 -0.11640367
0001f0 78 bf dc 3e ca a0 f6 bd 05 d2 18 3e 38 c8 18 3e
       0.4311483 -0.12042387 0.14923866 0.14920127
000200 b3 cf 44 bf d4 9e 99 bd 1e 30 5f 3f 45 25 57 be
       -0.76879424 -0.07500997 0.87182796 -0.21010311
000210 f0 be 93 3c f4 a9 64 3e 90 d5 66 3f a0 27 38 3f
       0.018035382 0.22330457 0.9016962 0.7193546
000220 24 9c f5 3e bd a5 94 be 15 7b 43 3f 5a 68 01 be
       0.47970688 -0.29032698 0.76359683 -0.12637463
000230 b9 67 4d bf 4c 39 11 3f 54 15 d6 bd ab 2f 76 3e
       -0.80236393 0.56728053 -0.10453287 0.24041621
000240 44 a6 02 3f d2 52 ff be 82 86 5a be e8 d7 6a 3e
       0.5103495 -0.49867874 -0.21340373 0.22933924
000250 ba e0 56 be a2 cb ee bc 24 be 52 3f 32 a8 d2 3d
       -0.20984164 -0.029149834 0.8232138 0.10285987
000260 65 61 1d 3e 29 d7 40 bf f0 a9 aa 3f 65 52 97 bf
       0.15369184 -0.7532831 1.3333111 -1.182202
000270 08 09 f9 3e 13 72 57 3e f4 01 2f 3f 74 fb 03 3e
       0.48639703 0.2103961 0.68362355 0.1288889
000280 b1 a3 90 3e 7c bb fa bd c2 2b 1d bf 6f 5b 9f 3e
       0.28249887 -0.12242791 -0.61394894 0.31124446
000290 b8 0b f7 bd fa 34 cc be e9 77 26 bf c0 b1 f0 be
       -0.12062782 -0.39884168 -0.6502672 -0.47010612
0002a0 a8 ae 07 bf b6 49 da 3d 01 c6 27 bf 2b 3b 2a 3f
       -0.5300088 0.106585905 -0.65536505 0.66496533
0002b0 67 e1 5e 3f 35 30 0c bf 8e 60 fd 3e 41 ec eb 3d
       0.87062687 -0.5476106 0.49487728 0.11519671
0002c0 60 d0 d1 3e c6 7f 0c 3f 2d 89 19 bf 25 07 8b bf
       0.4097929 0.54882467 -0.5997494 -1.0861555
0002d0 d4 0a 65 bd fc d1 1f 3f 3d 16 8c 3d 40 e0 bb be
       -0.05591853 0.62429786 0.06840179 -0.36694527
0002e0 d8 92 99 be 9f c3 a8 3e 30 ba 0b 3f 88 65 a1 3e
       -0.29994845 0.32961747 0.54580975 0.31522775
0002f0 90 a5 2b 3f a5 52 40 bf 8a 21 82 3e 6a e6 5e bf
       0.67049503 -0.75126106 0.25416213 -0.87070334
000300 66 fa 8a 3e 2a cb 8d be 4e 72 b8 be 62 f2 55 bf
       0.27144164 -0.27694064 -0.36024708 -0.8357297
000310 7d 13 84 3f f7 f6 12 3d 4a 07 4f bf 2c 12 f4 3c
       1.0318447 0.035880055 -0.808705 0.029793821
000320 c6 29 85 3e b2 ea fc bc 96 51 70 3e 65 ba ba 3d
       0.26008433 -0.03087363 0.23468623 0.09117583
000330 78 5e 0a bf aa a7 0c 3d af e0 5d 3f 44 23 4d be
       -0.540504 0.034339584 0.86670965 -0.20032984
000340 93 3b 57 3e 54 8c 9c 3d 8f 88 89 3e 87 df 16 3f
       0.2101882 0.07643953 0.26861998 0.58934826
000350 21 92 bb be d4 15 7a 3e 97 c6 0f bf 11 c3 59 3f
       -0.36634925 0.2442239 -0.561624 0.8506327
000360 55 bc 90 bd d8 b4 56 3b af cc 78 3f a0 20 3f 3e
       -0.070671715 0.00327616 0.9718732 0.18664789
000370 e1 58 c6 be 75 d6 b4 3e cc b3 5a bf 9e 26 1c 3f
       -0.38739684 0.35319868 -0.854306 0.60996425
000380 12 2d 0a 3f 1c 88 1f 3f bb 17 df 3e a9 9c 45 be
       0.5397502 0.6231706 0.43572792 -0.19298042
000390 1f a2 9f bf 43 ed 27 bf 4e 99 b8 3d 8a 21 f9 3e
       -1.247135 -0.6559641 0.090136155 0.486584
0003a0 69 40 db 3e 6f d3 21 be 62 2d cd bd 7b 11 0f 3e
       0.4282258 -0.15803312 -0.10018422 0.13971512
0003b0 fe 99 22 3e 44 cd 58 3f 67 c7 0f bf 30 45 75 3f
       0.15879056 0.8468821 -0.5616364 0.95808697
0003c0 fb 3e a5 3f 4b 34 0e 3f 6a 49 b7 be d8 76 84 3e
       1.2909845 0.5554854 -0.35798198 0.2587192
0003d0 09 48 3a bf fc 07 72 3f b2 4d 73 3e 12 19 e9 bf
       -0.72766167 0.94543433 0.23760107 -1.8210776
0003e0 53 7d 23 3f a6 59 14 be eb 5c da be a2 14 17 3f
       0.63863105 -0.14487323 -0.42649016 0.5901586
0003f0 38 76 99 3f bf c8 cd be 9b 54 0a be 87 76 30 bf
       1.1989202 -0.4019222 -0.13508837 -0.6893086

model_1/sequential_2/model_2/layer6/depthwise_conv/depthwise_weights_fused_bn f4 [256, 1, 3, 3]
000000 68 42 87 3e 56 97 0e bb 10 4b 19 3d b4 8b 6e 3f
       0.2641785 -0.0021757684 0.0374251 0.9318192
000010 d6 6a 1c be 6d 8b 9f bf c1 e9 20 3f 11 81 54 3d
       -0.1527513 -1.2464424 0.6285668 0.0518809
000020 da 8a b9 be c8 ed 56 be 67 b8 ac bd b0 2d 21 3e
       -0.36238748 -0.20989144 -0.084336095 0.15740085
000030 57 2f bb 3e dd f4 35 3f 8a 3c aa 3f c1 c1 ba be
       0.36559555 0.71076757 1.3299725 -0.36475947
000040 f8 db f2 bd 5a 2e 3a 3e 9f ce b6 3d d5 b6 e1 3d
       -0.11858362 0.18181744 0.089261286 0.110212006
000050 18 b2 d5 be 49 92 48 3e eb 2a 5e 3f 31 6f 77 bf
       -0.41737437 0.19587053 0.8678424 -0.9665404
000060 32 f9 ed bd 83 81 65 3e 30 4b 20 bf b6 ad 07 bd
       -0.11619796 0.22412686 -0.6261473 -0.033124648
000070 a6 02 09 be 1e c1 33 be d1 9f c1 bc 2d a4 53 3f
       -0.13379917 -0.17554137 -0.023635777 0.8267239
000080 27 11 4a 3f d2 b6 4a be c1 c1 79 3e 58 db a8 3e
       0.7893242 -0.19796303 0.24390317 0.32979846
000090 90 e8 85 3e d8 1d 98 bf 40 26 71 3f 8b 8b db 3b
       0.26153994 -1.1884108 0.9419899 0.0066999844
0000a0 37 be b4 3c c7 6b 21 be f3 ad 4d be ef f6 8d 3f
       0.022063358 -0.1576377 -0.20085888 1.1090983
0000b0 3e 82 55 bf 58 14 15 3f 80 51 8e 3b 9d d9 ef be
       -0.8340186 0.5823417 0.0043432117 -0.46845713
0000c0 1f aa 6d 3f 6f b4 c3 3d de 06 1e bf c4 32 bc be
       0.9283771 0.09555899 -0.6172923 -0.3675748
0000d0 ad fc 9b be cd 62 cd be a5 e8 98 be cc c1 54 bd
       -0.30466214 -0.40114442 -0.29864994 -0.05194263
0000e0 34 f1 4f bd b3 8c 5e bf d1 15 0d bf b9 95 3f bf
       -0.05076714 -0.8693344 -0.55111414 -0.74837834
0000f0 b0 ce f9 be 34 f4 36 be 8e ed 01 be c2 ae fe be
       -0.48790503 -0.17866594 -0.12688276 -0.49742705
000100 b7 1a 02 3d f9 be e0 bd fb ef 38 bf 6c 85 39 bf
       0.03176376 -0.10973925 -0.7224118 -0.7246921
000110 02 0c 2e be ac 06 35 bf 24 c5 4b 3d 00 ea 9a be
       -0.16996768 -0.70713305 0.049748555 -0.30256653
000120 78 f1 9c 3f 46 e9 88 3e 2f 49 c1 bf 7a b8 26 bf
       1.226119 0.26740474 -1.5100459 -0.6512524
000130 9e 63 6c be dc 01 0d 3f 46 c1 c1 be 35 0a 6c bd
       -0.23084876 0.5508096 -0.37842768 -0.05762692
000140 95 e7 cc 3e e6 18 9b be e4 9d 3d 3f 58 96 9b 3e
       0.40020433 -0.30292434 0.74069047 0.3038814
000150 fe ab c5 be d2 84 4f 3f 68 1c 1a 3f bf 4c e4 be
       -0.38607782 0.8106204 0.60199594 -0.44589803
000160 54 b5 59 be e2 04 cd be 35 6a 70 3f 22 25 09 be
       -0.21260577 -0.40042788 0.9391206 -0.13393071
000170 e4 d2 f8 be d2 71 74 3f 3d a2 29 3e 37 a8 4d bf
       -0.48598397 0.95486176 0.16565795 -0.803348
000180 f9 89 05 3c ae a2 18 3e 34 47 b4 3d e7 bc 8a 3f
       0.008150571 0.14905807 0.088026434 1.0838898
000190 8a 92 7a 3f f1 4d 73 3e 07 18 08 3e 8c 60 e8 3e
       0.9787985 0.23760201 0.13290416 0.4538616
0001a0 6a 0b fa bd fe 6f b0 3e fe dd f3 3e 72 b2 99 be
       -0.12209208 0.34460443 0.47630304 -0.30018955
0001b0 32 db 65 be a2 65 a9 be e9 6a f3 be 07 03 48 be
       -0.22446898 -0.33085352 -0.47542503 -0.19532405
0001c0 e8 44 e5 bd d3 d9 91 be c7 16 f7 bd 9f 24 81 be
       -0.111947834 -0.284865 -0.12064891 -0.25223252
0001d0 87 91 d0 be b9 69 0d bf 92 d2 c4 3d 62 57 2a 3f
       -0.4073603 -0.55239445 0.096104756 0.66539586
0001e0 7e c0 c9 be a9 2c 2d 3e de d9 88 3f e8 e1 63 bd
       -0.39404672 0.16911568 1.0691488 -0.055635363
0001f0 df 0b 87 be 5d b6 05 bf 3c 11 a4 3e 3a c5 2f bf
       -0.26376244 -0.5223139 0.320444 -0.6866032
000200 de 1e d8 3e 10 97 55 bf ee 7d 74 be 6d dd 8f 3f
       0.4221105 -0.8343363 -0.23876163 1.1239449
000210 b4 47 2b bf 8c df 1f 3f 65 5e a1 be cb 6d 80 bd
       -0.66906285 0.6245048 -0.3151733 -0.06270941
000220 bc c3 52 bf b5 47 ee 3d 77 79 8c bd 9f 34 33 bf
       -0.82329917 0.11634771 -0.06859105 -0.7000217
000230 af 59 ed 3e 2f 96 24 3e 04 7e 34 bf c1 8e 8d 3e
       0.46357486 0.16072915 -0.70504785 0.27647975
000240 34 a1 6e 3f 58 55 71 3d 9e 47 3d bf ae 69 ec bd
       0.93214726 0.05891928 -0.73937404 -0.11543594
000250 b2 e5 07 3f 28 8a c7 be 42 c0 33 bf 69 31 14 3d
       0.5308486 -0.38972592 -0.7021524 0.036179934
000260 9d 26 fe 3e 1d 96 e7 3d b5 cb 23 3c 5e 55 4b 3e
       0.49638835 0.11307929 0.009997298 0.19856784
000270 00 37 7e 3f 8b df 4a 3e 11 72 ff 3e 3d f4 5a 3e
       0.99302673 0.19811837 0.49891713 0.21382232
000280 6e a1 40 3e 7a 33 94 3e f6 72 a9 be a9 32 54 be
       0.1881158 0.28945524 -0.3309552 -0.2072245
000290 a9 60 a7 3e ff 05 03 bb c9 1a a0 3e 5f 07 c8 3f
       0.32690933 -0.0019992588 0.31270435 1.562725
0002a0 82 7e fd bd 7c 25 e3 be 98 07 9f bd 21 ac 8d bc
       -0.12377645 -0.44364536 -0.0776512 -0.017293992
0002b0 9e 1e 6e 3e 00 d1 68 3d 1c 28 b5 3e 95 0a d5 3f
       0.23253867 0.056839943 0.35382164 1.6643854
0002c0 a4 07 69 bd c9 2f 6e be 2c 15 3b bd f7 5e a7 3d
       -0.056892052 -0.23260416 -0.045674488 0.0817241
0002d0 69 d0 9d be 70 a9 a5 bc ce 81 f3 3e ea a0 8b bf
       -0.30823067 -0.020222396 0.4755997 -1.0908482
0002e0 60 60 d7 bb 89 7c 94 3f de e1 f4 be 4d e4 cd bd
       -0.006572768 1.1600505 -0.47828573 -0.100533105
0002f0 86 3a bd 3e 02 5b 3a be 3b 19 c2 3e f1 5b 90 bf
       0.36958712 -0.18198779 0.37909874 -1.1278058
000300 31 16 31 3f ce 0f 48 3f ea 83 77 bf 0b 13 75 bd
       0.69174486 0.78149116 -0.9668566 -0.059832614
000310 27 5a af 3e 8c e8 96 bd 04 a0 a8 be e6 1d ea bb
       0.34248468 -0.073685735 -0.32934582 -0.0071446775
000320 fa 96 38 bf 77 a5 a2 3f 6e 62 ae 3e a6 cd 60 bf
       -0.7210537 1.2706746 0.3405947 -0.87813795
000330 cc 72 1c 3e 3d b7 94 3e 7c a8 ab be d8 5b 14 3f
       0.15278167 0.2904605 -0.3352698 0.5795264
000340 38 cb be 3e 65 d8 4a bf f6 3e ac 3e a9 f2 32 3f
       0.3726442 -0.7923644 0.33641785 0.6990152
000350 80 d5 2f bf e6 50 85 3e a0 53 f5 3d 2a 04 ce be
       -0.6868515 0.26038283 0.11978841 -0.40237552
000360 f0 09 3c be 5c 24 cc 3e 7d 30 f8 bd fb b5 16 3f
       -0.18363166 0.3987149 -0.121186234 0.5887143
000370 f5 17 13 3f 91 96 f7 3d 8d 8a 1d 3f f0 46 61 3e
       0.5745843 0.12089265 0.61539537 0.21999717
000380 49 25 14 3f e6 88 55 bf 87 1e 22 bf 29 22 39 bf
       0.5786939 -0.83412015 -0.6332783 -0.7231775
000390 7e 59 2a 3f e1 98 ce 3e ae 5d 28 3e a5 50 22 3e
       0.66542804 0.40351012 0.16441986 0.15851076
0003a0 26 db 9a 3d fa d0 0b 3d 5f 35 b9 bd 62 aa 02 bf
       0.075613305 0.034134842 -0.09043383 -0.51041234
0003b0 e9 54 a5 3e 94 94 45 bf b8 bc 18 bf e5 f0 ce 3f
       0.32291344 -0.7717984 -0.5966296 1.6167265
0003c0 e8 28 c3 bd 78 2c 77 be 37 65 10 bd 12 84 b6 bc
       -0.095292866 -0.24138057 -0.035252776 -0.022279773
0003d0 70 58 5b be cd d2 8c be 45 ca 9e be 0e 57 ee be
       -0.21420455 -0.27504578 -0.31013694 -0.46550792
0003e0 86 90 e0 be e6 72 82 bd fd e2 83 be eb a2 3f bf
       -0.43860263 -0.063695714 -0.25759116 -0.7485797
0003f0 e0 10 91 be 22 be d7 be 39 34 88 be 00 6b 31 bf
       -0.28333187 -0.42137247 -0.26602343 -0.69303894

model_1/sequential_2/model_2/layer6/depthwise_conv/depthwise_bias_fused_bn f4 [256]
000000 13 e3 0f be 53 fc 4f bf be ea d7 3d c6 ec 10 bf
       -0.14051466 -0.8124439 0.105428204 -0.5661129
000010 01 85 5b bd e8 8c 25 3e 4e 33 9c 3f 5b 18 89 3f
       -0.05359364 0.16167033 1.2203157 1.0710558
000020 22 b2 05 3e e5 b4 40 be 2c 03 26 be ff 1b 8b bf
       0.13056234 -0.18819006 -0.16212147 -1.0867919
000030 c4 15 67 3f c0 b6 98 bd 84 89 eb 3d 38 e8 1c 3f
       0.90267587 -0.07456732 0.115008384 0.6129184
000040 33 ca fc bd fc 69 7a bf 30 76 8d be 6b 1b 4b bf
       -0.12343254 -0.9781797 -0.27629232 -0.7933871
000050 32 8e d3 bd 9c 85 8d bd 26 0c b4 bd bc fa 51 be
       -0.10329856 -0.069102496 -0.0879138 -0.20505804
000060 1b 05 77 bf 9a e3 82 3e 96 ad 0a 3e fe 93 75 3f
       -0.96492165 0.2556427 0.1354278 0.95928943
000070 35 f2 4c 3f b0 4f 87 3f 72 10 61 3f f5 b4 f5 3e
       0.8005708 1.0571194 0.8791572 0.47989622
000080 2a 10 5f bd 12 ef 36 3f 9b ee c7 3e 22 3e 55 3c
       -0.054458775 0.7145854 0.3904923 0.013015302
000090 9d 6d 40 bf f5 91 15 3f 46 1d fc be d4 c4 95 3f
       -0.75167257 0.5842584 -0.49241084 1.1700692
0000a0 88 f7 09 3e 36 33 8c 3e 88 74 c5 bd 04 26 0d be
       0.13473332 0.2738282 -0.09641367 -0.13784033
0000b0 aa 76 48 bf 74 1c 22 3d 4f ef 6b 3e 4b fb fb 3e
       -0.78306067 0.039577916 0.23040508 0.4921516
0000c0 de fc ae bd fb af 53 3f 29 87 12 be 35 e8 fc bd
       -0.08544324 0.826904 -0.14309372 -0.123489775
0000d0 64 b4 57 3f 5a 04 17 bf aa 76 4c bf 69 7e a7 3e
       0.8425963 -0.58991015 -0.79868567 0.3271363
0000e0 10 0a d0 bb 24 eb 8c 3d f8 d2 b2 bd 20 a2 35 bf
       -0.006348856 0.06880787 -0.08731645 -0.7095051
0000f0 3d 71 44 bf c6 ce 34 be 2f 8d 38 bf a2 22 ff 3e
       -0.7673529 -0.17657003 -0.7209043 0.4983111
000100 d3 f5 b6 bc b2 2b 71 be d8 7e c6 3e e7 b1 27 3f
       -0.022334015 -0.23551825 0.3876865 0.6550583
000110 08 69 b4 be 4e c6 0c 3f 57 58 69 3f f3 9b c2 be
       -0.35236382 0.5499009 0.9115042 -0.38009605
000120 61 e2 47 bf 90 b2 15 be 9a e0 dc bd cc de 71 3f
       -0.780798 -0.14618897 -0.10785027 0.94480586
000130 63 65 11 bf 29 41 81 3f ef bc fd 3e bc db 64 bf
       -0.5679533 1.009801 0.49558207 -0.8939779
000140 1a c1 8f 3c be 7c 81 3f c4 81 17 3e 59 e1 54 3f
       0.017548133 1.0116193 0.14795595 0.83156353
000150 34 b3 d2 3c e6 af 98 bd cb c3 18 bf 19 51 e7 3e
       0.025720216 -0.07455425 -0.59673756 0.4517906
000160 1e d8 22 3e 76 c3 94 bc b2 bf dd bd 53 62 03 be
       0.15902755 -0.01815961 -0.108275786 -0.12830476
000170 d8 d1 88 bc 0e 43 1b 3d 9b 51 7d be 1e 23 4c 3f
       -0.016701624 0.037905745 -0.24738161 0.79741085
000180 38 ea e4 be 8c 79 a6 be 1e 2f 43 bd 64 d5 13 bf
       -0.44709945 -0.32514608 -0.047652356 -0.57747483
000190 28 9a 95 be 3a 1a ac 3f 34 cf 83 be c4 90 43 3f
       -0.29219174 1.3445504 -0.2574402 0.7639277
0001a0 b2 72 2b be 6b c7 81 3f d5 52 59 bf 0a 76 a5 3e
       -0.16742972 1.0138983 -0.84892017 0.3231662
0001b0 7a c9 6b 3f f1 32 4b 3f 32 91 56 3f e8 8e 0c bf
       0.92104304 0.79374605 0.838153 -0.5490556
0001c0 69 29 c8 bd b7 dd 2f bd 00 1b 7f 3f ea ac 12 bf
       -0.09773523 -0.042936053 0.99650574 -0.57295096
0001d0 fe 87 c4 bd 07 7c 66 3f 52 e3 0a 3f 36 bc 40 3e
       -0.09596251 0.90033 0.54253113 0.18821797
0001e0 f0 92 b1 bd 39 f4 bc bd dc 9a 98 3f 57 5d 90 be
       -0.08670604 -0.09226269 1.1922259 -0.28196213
0001f0 08 8a 14 3f ea 04 77 be bd 75 dc 3e 9b 75 2e bf
       0.5802312 -0.24122968 0.43058577 -0.681482
000200 82 b9 06 bf b2 4d 88 bc ac bf 23 3e 9a 30 0c 3f
       -0.5262681 -0.01663861 0.15991086 0.5476166
000210 97 b1 c9 3e b8 a6 98 3d 2d ba 76 bf c4 6d 87 3f
       0.39393303 0.07453674 -0.9637783 1.0580373
000220 e5 37 40 bf 9f e9 f2 bd c2 bf b1 3e e0 4e a5 be
       -0.7508529 -0.11860966 0.34716612 -0.3228674
000230 ea c9 41 bf ac 49 42 bf 96 60 30 be 2c 53 e3 bd
       -0.7569872 -0.75893664 -0.17224345 -0.11099848
000240 ac a5 a4 be ae 9d e6 be d2 8d 7a be 57 be d1 be
       -0.32157648 -0.45042175 -0.24468163 -0.4096553
000250 e2 52 56 be f1 59 a1 be 7a 4e 33 3f 3e 23 75 3f
       -0.20930055 -0.31513932 0.7004162 0.957569
000260 9c 10 cb 3d 96 a5 93 3f 0c 33 81 3f 62 62 d6 be
       0.09915277 1.1534908 1.0093703 -0.41871935
000270 d7 15 6f be 60 70 a5 bc 80 82 25 3e 32 48 da bd
       -0.23348175 -0.020195186 0.16163063 -0.106583014
000280 3a 21 34 3e 59 0a 5d 3f 86 87 5a 3f 14 76 68 bf
       0.175908 0.86343914 0.8536304 -0.9080517
000290 ac e2 48 3f ee 47 2a bf a3 a8 21 be 7b 06 6a 3f
       0.78470874 -0.66516006 -0.15786986 0.9141614
0002a0 4c 57 c5 3e f6 e9 9d 3d 1f b5 e5 be 3f 07 17 bf
       0.38543165 0.0771064 -0.44864747 -0.5899543
0002b0 00 c3 69 bb a9 1f c9 bd 72 c2 34 bf 15 8b 61 3e
       -0.0035669208 -0.09820492 -0.706092 0.22025712
0002c0 05 28 75 3f dc 95 62 bd a4 21 6a bd 43 a4 c8 be
       0.9576419 -0.0553187 -0.05716099 -0.39187822
0002d0 c1 cb 46 bf 19 0a 97 bd f8 04 2a bc 02 c1 6e 3e
       -0.77654654 -0.07374973 -0.010377161 0.23315814
0002e0 f0 d9 0d bf 8b cb 92 3e ed 40 26 bf 26 a4 fd 3e
       -0.5541067 0.28670916 -0.6494282 0.49539298
0002f0 7b 63 2f bd fe f0 ed bc 3f f5 bf bd 0d 8e 6d 3e
       -0.04281948 -0.029045578 -0.09372949 0.2319872
000300 d6 73 38 bf 39 c0 b4 be 37 c4 3c bf f4 4e 57 bf
       -0.7205175 -0.35302904 -0.737369 -0.8410485
000310 d0 7e 00 bf 84 a1 94 bd 44 18 94 3f e4 c9 ce bd
       -0.501935 -0.07257369 1.1569905 -0.10097101
000320 ef c0 09 bf 05 f0 8f 3e 56 bc cd be 26 ab e8 3c
       -0.5381002 0.28112808 -0.4018275 0.028401922
000330 1e 8b c9 bd d5 ae 76 be bd cf fe bd 80 e6 42 be
       -0.098409876 -0.2409013 -0.12441967 -0.19033241
000340 ee ad d9 bd c7 40 17 bd 09 77 0b be ab 7c 54 bd
       -0.106288776 -0.03692701 -0.13619627 -0.051876705
000350 b0 2a 04 bd 25 dc a4 bd df a5 1c 3f 13 98 53 bd
       -0.032267272 -0.08049802 0.611906 -0.0516587
000360 06 bf 52 be 07 62 16 3f 38 96 88 3e a8 10 80 3f
       -0.20580682 0.5874333 0.26677108 1.0005083
000370 d2 59 36 3e 26 79 79 3f 41 84 b5 3e f9 77 52 bf
       0.17807701 0.9745048 0.35452464 -0.82214314
000380 e3 47 a6 be c6 11 30 be b8 4a cf 3d 55 a3 70 3f
       -0.3247672 -0.1719428 0.10121673 0.93999225
000390 03 22 87 3f be 93 ef bd 40 4d cd bc b5 63 1e bf
       1.0557255 -0.116981015 -0.02506125 -0.6187089
0003a0 d6 93 e3 3d 42 96 96 3e 4d 49 67 3f 01 e8 ec be
       0.11112182 0.29411513 0.90346223 -0.46270755
0003b0 4f 5e b8 be 55 04 29 3e 92 d3 72 bd dd 93 4b be
       -0.36009452 0.16505559 -0.0592838 -0.19880624
0003c0 16 b2 93 bc 9a f7 5f bf e2 b1 88 3e 2c 90 bf 3b
       -0.018029254 -0.87487185 0.26698214 0.005846044
0003d0 d6 e1 4d 3f 66 23 99 3e 9c 89 3d be ad 8f f3 be
       0.80422723 0.2990982 -0.18509525 -0.47570553
0003e0 62 eb 61 3f dd 40 74 3f f3 78 9a 3e 9d ec eb be
       0.8824979 0.95411474 0.30170402 -0.4607896
0003f0 6e 20 8c 3c 94 dc 44 bf e0 d8 55 3f cb 6a 2b be
       0.017105307 -0.76899076 0.8353405 -0.16739957

model_1/sequential_2/model_2/layer5/pointwise_conv/Conv2D_weights_fused_bn f4 [256, 128, 1, 1]
000000 d5 d7 06 3e e7 d6 10 be ac 56 18 be a7 0a 83 3e
       0.13168271 -0.14144479 -0.14876813 0.25594065
000010 d5 1e d5 3d af b8 d1 3d b0 0e 13 3c a6 12 0f 3d
       0.10406271 0.10240304 0.00897567 0.034929894
000020 73 91 ae bd 0e 38 90 bd 56 c6 5d bd f1 a4 24 3d
       -0.08523836 -0.070419416 -0.054144226 0.040196363
000030 51 d8 99 3d 78 46 51 3e 21 4d 21 3c b5 ca ae bd
       0.07511962 0.20437038 0.009845049 -0.08534757
000040 a5 a9 23 bc 83 50 18 be d9 53 63 3d 6f a0 76 3d
       -0.009989177 -0.14874463 0.055499885 0.060211595
000050 0b 23 a4 bd 81 ba 2f 3d cd 37 71 be 42 00 9b 3d
       -0.080144964 0.042902473 -0.23556443 0.075684085
000060 76 3f 9e bd 27 af 3d bd 9c e8 d2 bd cf 39 c9 bd
       -0.07726948 -0.046309616 -0.10298273 -0.09825479
000070 45 62 88 bc 33 b1 c3 3c a2 7e 89 bb 60 2b c5 3d
       -0.016648421 0.023888206 -0.004196004 0.09627414
000080 cb a1 59 bd 31 64 81 bd 27 2b a9 3d 1c 6b 2f 3c
       -0.053132813 -0.06317938 0.08260184 0.010706689
000090 8a 80 ff bd e0 2a 41 3e f6 ed d9 bd 99 10 9e bd
       -0.12475689 0.18864012 -0.106410906 -0.077180095
0000a0 c7 0c 67 3d c1 4f ee 3c f2 93 10 bc 17 be 50 be
       0.05640867 0.029090764 -0.008824335 -0.20385014
0000b0 92 ec 84 3d a9 5f f4 3d cd f0 22 bc b1 34 26 be
       0.06490435 0.11932308 -0.009945107 -0.16231038
0000c0 e6 90 69 3d 66 06 a8 bd 64 e6 ad 3d 9c d5 ca 3d
       0.05702295 -0.082043454 0.08491209 0.09904024
0000d0 4c 55 73 bd 28 e2 f4 bd 90 23 96 3d 67 b5 d2 ba
       -0.059407517 -0.119571984 0.07331002 -0.0016075791
0000e0 13 5b 65 bd 40 cc 97 bd 32 67 1d 3d 17 0d da 3c
       -0.05599506 -0.074120045 0.038428493 0.02661757
0000f0 a1 9b 8b 3c b6 28 a8 3d de 3a 09 bc 98 68 3a bd
       0.017041983 0.0821089 -0.008375851 -0.045509905
000100 2d 89 c9 3d bf cc 30 bd f1 30 c1 3d 4f c4 b8 bb
       0.09840617 -0.04316401 0.09433163 -0.005638636
000110 5a b2 76 bd 19 cc 06 3d 4b da 98 bb fd 7a eb bb
       -0.060228683 0.032909486 -0.0046646944 -0.007186292
000120 cf 13 54 3d 7b b5 1d be a1 a4 7c bd 2b d9 d0 3c
       0.051776703 -0.1540126 -0.06168044 0.025494179
000130 ed 79 88 3d c5 35 c2 bd c2 d1 be bc 8f 23 83 bd
       0.066638805 -0.09482912 -0.02329338 -0.06403267
000140 1c b8 1f be dc 7f 27 bd b0 29 f4 bd 58 fa 62 3d
       -0.15597576 -0.04089342 -0.11922014 0.055414528
000150 2f 6d 0e 3d b6 40 2e 3c d0 db 2a bd d1 ad 62 3a
       0.034772094 0.0106355455 -0.041713536 0.00086471165
000160 43 ff 8a 3c b8 60 53 3d 3d e0 e5 3c e3 d1 b5 3d
       0.016967421 0.05160591 0.028061027 0.08877923
000170 9a 13 a2 3b 18 82 01 3e ea 3f 7e bc 62 93 52 bc
       0.0049461843 0.12647283 -0.015518168 -0.012852522
000180 a6 98 06 3e 69 e0 08 bc 0e 43 73 3c 21 49 f4 bd
       0.13144168 -0.008354285 0.01484753 -0.11928011
000190 89 ed a3 3d 50 72 e5 bc c1 20 a8 3d 48 f9 d6 3d
       0.080042906 -0.02800861 0.08209372 0.104967654
0001a0 36 d7 6b bc f0 de e8 bd 45 42 2f bd 04 c3 01 3d
       -0.014394572 -0.11370647 -0.04278781 0.031680122
0001b0 da 0c ae bb b0 fb 17 3e 3c 84 c7 bd 84 2a 1a be
       -0.0053115906 0.14842105 -0.097420186 -0.15055281
0001c0 6a 7d 5a 3d 49 42 aa 3a bd f3 13 3d a9 cc 8c bd
       0.05334226 0.0012989725 0.03612112 -0.06874973
0001d0 8f bd e4 3c 36 b7 14 3e e6 18 18 3a fc bf 71 bd
       0.02792242 0.14523014 0.000580205 -0.05902098
0001e0 c3 78 be bd 9c 11 e7 bd c2 76 be 3d 33 69 7f ba
       -0.09300377 -0.112826556 0.09299995 -0.0009743154
0001f0 07 78 b2 3d 5f 56 c0 3d 80 09 be bc 67 b0 4b bd
       0.087143 0.09391474 -0.02319789 -0.049728777
000200 12 cc f5 bd 2f ff f6 bd ba 76 88 bc e2 3c 7c bc
       -0.12001814 -0.12060391 -0.016658176 -0.015395375
000210 4f 5f 5e bd c0 42 6c 3d 90 43 12 be 31 e2 82 bd
       -0.054290112 0.057680845 -0.14283586 -0.06390799
000220 ea 01 75 3d 93 e4 c3 3d 06 bc 12 bb c6 46 a5 3d
       0.05981628 0.095650814 -0.0022389903 0.080701396
000230 18 3c 2f be 51 ba 86 bd dc 88 57 bd 64 72 bb 3e
       -0.17112768 -0.06578506 -0.052620754 0.3661071
000240 b8 24 ba 3c 72 eb c0 3c 6b f2 cb bd 4b 2b ae 3a
       0.022722587 0.02354977 -0.09958347 0.0013288049
000250 b0 9e 63 3d 88 c4 44 be 3c 61 6d bc 4c a9 19 be
       0.055571258 -0.19215596 -0.0144885145 -0.15005988
000260 62 e5 a5 3d f1 24 4f bd d8 47 80 3c 78 2a 04 3d
       0.08100392 -0.05057234 0.015659258 0.032267064
000270 7d 51 a6 3c 28 a1 3f bd 06 08 46 be 09 d6 09 bd
       0.020302529 -0.04678455 -0.19338998 -0.033651385
000280 f9 de 17 3e e6 f1 21 bd 0a f9 da bc 95 be a2 bc
       0.14831151 -0.039537333 -0.02673008 -0.019866267
000290 5d d5 a6 3d 5d e2 f7 bc 41 33 53 3d 30 f7 3c bc
       0.081461646 -0.030259306 0.05156255 -0.0115335435
0002a0 c7 e1 75 3c fa 27 d0 3c 17 b4 1b 3c af aa 8d 3c
       0.015007443 0.025409687 0.009503386 0.017293302
0002b0 93 82 d3 bd 0d db 8d bc 58 2e 83 be cf 56 57 be
       -0.103276394 -0.017316366 -0.25621295 -0.21029209
0002c0 b3 b8 88 be 6c dc 95 bb 1e 4a a5 bb 8c 7c b6 3d
       -0.26703414 -0.0045733955 -0.005044236 0.08910474
0002d0 bb 91 fd bd 1d d9 e7 3d 47 96 d0 bb f7 26 30 bd
       -0.123813115 0.11320708 -0.0063655707 -0.04300591
0002e0 5f d8 a6 3d 24 cd 89 3d 72 68 30 3d 9d 5f 81 3d
       0.08146738 0.067285806 0.043068357 0.06317065
0002f0 c4 47 20 bd 34 a6 a5 3d f4 4e 4c be b1 00 f5 bc
       -0.03913094 0.08088341 -0.19951993 -0.029907556
000300 1c 4e 49 bd d5 84 8d bd 16 51 8d bd ed fc 96 be
       -0.049146757 -0.06910101 -0.069002315 -0.29489842
000310 fb 9e 54 bb 1b 14 9a 3c e9 8e 3b be fe c8 1e 3d
       -0.0032443393 0.018808415 -0.18316235 0.0387659
000320 b8 95 24 3b 3c b8 87 3d a7 ef 38 bd 82 e0 19 3d
       0.0025113653 0.06626937 -0.045150425 0.037567623
000330 b4 58 c5 3c 1d 08 12 bd 24 23 34 3d 49 04 dd 3c
       0.024090149 -0.03565227 0.043978825 0.026979582
000340 8e c8 20 3b b4 02 04 be 2d 79 52 3d 8c 64 60 bd
       0.0024533602 -0.12891656 0.051385093 -0.05478339
000350 bd 86 b9 3c 4e 38 d9 bd a5 ba b3 3c 76 cc 65 bd
       0.022647256 -0.106064424 0.021939585 -0.056103192
000360 6d 7d bc 3d e2 42 22 3d d2 f5 05 3e 21 92 f9 bb
       0.092036106 0.039614566 0.13082054 -0.007616297
000370 90 5b 23 be ac 0f 17 3d 96 44 00 3e 66 18 e2 3b
       -0.15952897 0.03688018 0.12526163 0.006899881
000380 dd 2d 1f 3d a2 47 b8 bb aa 1c 94 3c a8 55 47 bc
       0.038862098 -0.0056237737 0.018080074 -0.012166418
000390 b6 03 25 3d 41 90 c4 3c 97 5f 03 3d e4 3e 00 3d
       0.040286742 0.023994567 0.032073583 0.031309977
0003a0 2e eb b3 bc b3 d9 46 3a 33 e9 8d 3d 07 cf ec bb
       -0.021962728 0.00075855403 0.06929245 -0.007226828
0003b0 3d dc 9a bd f3 6c be bb 7b 3b 57 bb 87 f9 b0 bc
       -0.07561538 -0.0058113276 -0.003284185 -0.021603359
0003c0 3a c5 4a 3d 6e 6b b5 3d 4f 15 77 3a 88 dc b6 bd
       0.049504496 0.08858381 0.00094254775 -0.08928782
0003d0 8c c5 ed 3c 40 50 d1 3d 22 66 7c 3c 6c 0c 49 be
       0.029024862 0.102203846 0.01540521 -0.19633645
0003e0 5d 1c f7 bd ff 97 ad 3c b3 f3 92 3c 4a 6b b5 bd
       -0.12065957 0.021190641 0.01793847 -0.088583544
0003f0 2e f0 ca bc 2f c6 52 3d 14 5a d5 bd 65 54 66 be
       -0.02477273 0.051458534 -0.10417572 -0.22493131

model_1/sequential_2/model_2/layer5/pointwise_conv/Conv2D_bias_fused_bn f4 [256]
000000 8c 0b 47 3e 35 58 28 3f bc 85 10 3e 42 63 a8 3e
       0.19437999 0.65759593 0.14113516 0.32888228
000010 b2 66 f9 3d 11 d3 23 be d8 05 4f 3e 42 6b 46 3f
       0.12177791 -0.15998484 0.20217073 0.7750741
000020 18 07 22 3d 04 63 e2 3e b5 5e fb be 69 6a 4c 3f
       0.039557546 0.44216168 -0.49095693 0.7984987
000030 d2 f3 aa be 33 39 39 bf 8c ca c6 3e 0a eb 6c 3e
       -0.33389145 -0.72352904 0.38826406 0.23136535
000040 e2 f2 9f 3e e1 5e 11 3f 7e 20 0d 3f c9 3f aa bd
       0.31239992 0.567854 0.55127704 -0.08312947
000050 e0 10 2c 3f 37 aa 1c 3e bb 17 35 3f 33 7e 3a 3f
       0.6721325 0.15299307 0.70739335 0.72848815
000060 9d d3 e2 3d b4 04 ba 3e af 6d 0f 3e 78 a6 ce be
       0.11075518 0.36331713 0.14006685 -0.4036138
000070 4e 33 21 bf 9b 2f 00 3d 73 14 84 3c 1d d3 2e 3f
       -0.6296891 0.0312954 0.016123032 0.68290883
000080 5a 4b 58 3f 50 ed da 3d 6a 7a 3f bf 98 36 44 3e
       0.8448998 0.10689795 -0.74796164 0.19161451
000090 54 91 64 3f 91 10 b3 3e a0 cf c9 3b 61 78 3b 3f
       0.89284253 0.34973577 0.006158784 0.7323056
0000a0 d8 0e 55 3f 18 43 e3 bd e4 34 73 3e 97 74 97 bd
       0.83225775 -0.110967815 0.23750645 -0.073952846
0000b0 fe e0 dd 3d c8 2a 51 3f 20 69 c3 bc e8 18 d2 3e
       0.108339295 0.81705904 -0.023853838 0.41034627
0000c0 30 07 10 3e aa 1e 3a be 21 0d 7c be 50 d0 31 3f
       0.14065242 -0.1817576 -0.24614383 0.69458485
0000d0 54 7b 6c be d8 07 db 3e fc 73 1c 3f 2f 6a b5 be
       -0.23093921 0.42779422 0.6111448 -0.35432574
0000e0 ed 92 3d bd 40 b0 3d 3f 8f da 86 3e c7 04 01 3f
       -0.046282697 0.7409706 0.26338622 0.50397915
0000f0 eb cc 8b 3f 70 51 bd 3e 60 13 be 3e d7 e3 d6 be
       1.0921911 0.36976194 0.37124157 -0.41970703
000100 82 5e 08 be 72 db 03 3f 89 ba fe 3e 3a 68 3a 3e
       -0.13317302 0.5150672 0.4975169 0.18203822
000110 c3 00 df be 01 63 82 be ba 54 47 bf 2f 41 c9 3e
       -0.4355527 -0.2546616 -0.7786366 0.39307544
000120 98 25 06 3f 28 75 84 bd 71 4a 4e be 25 56 20 3f
       0.52401114 -0.06467658 -0.20145585 0.62631446
000130 dc 30 95 3d 14 2d c5 3e 55 8c 96 3e 5c 0f 23 bc
       0.0728471 0.38510954 0.2940394 -0.009952392
000140 e6 0b 03 3f e1 b4 9a 3f f0 2a a3 3e 48 f4 0f bd
       0.5119003 1.208645 0.31868696 -0.035145074
000150 1c 08 5c 3d 78 90 1e 3f 1c 62 9b bd 80 10 4d bf
       0.05371867 0.6193919 -0.07587072 -0.801033
000160 0a 91 48 3f 77 a5 3c 3f fa ba 22 3f 3d 3a 15 3f
       0.7834631 0.7368998 0.63566554 0.5829199
000170 9c f9 0e 3e 99 cf 5a 3f be 5d 71 be bc 3c 7c 3e
       0.13962406 0.8547302 -0.23570916 0.24632543
000180 7d 95 e8 be 51 ad e9 bd 59 1a 89 be 34 52 e6 3d
       -0.4542655 -0.114100106 -0.26777914 0.11246148
000190 9b 23 3a 3f a3 64 8f 3f b0 33 a5 bd 3c b5 d6 3e
       0.7271058 1.1202587 -0.08066499 0.41935146
0001a0 b2 17 d1 3e c4 f7 70 be 86 41 69 be a6 26 d3 3e
       0.4083839 -0.23532015 -0.22778901 0.41240424
0001b0 52 6d e0 bd b9 24 3c be 07 c8 b6 be f0 24 48 3e
       -0.10958351 -0.18373384 -0.35699484 0.1954534
0001c0 c0 24 4d bc 5e 61 e4 bd 20 6a a3 3f 0a 01 c4 3d
       -0.012520969 -0.11151384 1.2766762 0.09570511
0001d0 9e f2 9b 3e e5 07 de be 48 86 92 3e 4c 30 d8 be
       0.3045854 -0.43365398 0.28618073 -0.42224348
0001e0 c8 fc c6 3d 29 18 4e 3e 7c 17 5f 3f 1f 3f 5a 3e
       0.09716183 0.20126404 0.8714521 0.21313141
0001f0 29 53 c8 3e a0 ea 15 3f 90 eb f7 be 17 72 2d 3f
       0.39125946 0.58561134 -0.48421907 0.6775221
000200 d9 12 71 bf 0c 6d 80 bd 80 a4 a2 3b 46 1e 4b 3f
       -0.94169384 -0.06270799 0.0049634576 0.7934307
000210 d5 8a 05 3f a8 74 1a 3f 83 f5 ce 3e 32 49 14 3d
       0.52164966 0.60334253 0.40421686 0.036202617
000220 f2 c4 92 be 38 72 5a be 4c e7 84 3e d3 d9 f2 3e
       -0.28665882 -0.21332633 0.25957716 0.47431812
000230 82 07 bd be d7 6d 57 3e 11 36 ef 3e 46 2d 05 bf
       -0.3691979 0.21037994 0.46720937 -0.52022207
000240 16 2c bb 3d a3 b9 a3 bf c9 b4 fa bd 5f 27 13 3f
       0.09139268 -1.2791027 -0.12241513 0.5748195
000250 bb 45 76 bf 55 8a 3a 3e 4f 18 b9 3f 1a e2 22 3f
       -0.9620015 0.18216832 1.4460543 0.63626254
000260 de a9 8a be 9e 38 5b 3f b1 fa a5 3f b6 e8 a2 3e
       -0.27082723 0.85633266 1.296713 0.3181817
000270 f7 28 53 3e 3e 50 16 bf fa ef 73 3e 3f 23 2a 3e
       0.20621096 -0.5871619 0.23822013 0.16615008
000280 28 50 f3 be ef ea 1a 3e 5c 45 60 3e ba 9e 7f 3e
       -0.47522092 0.15128683 0.21901459 0.24962893
000290 ec 1e 20 3f 56 9d 43 bf df 5c c1 3e 0a 70 4d 3e
       0.62547183 -0.7641195 0.37766168 0.20062271
0002a0 56 fb 20 bd f3 f2 d9 3e 91 9c e0 3e f3 2e 4f 3f
       -0.039302193 0.42568168 0.4386945 0.80931014
0002b0 d5 c6 64 3f 9b a2 29 3d 73 cb fd bd f2 44 8a be
       0.89365894 0.04141484 -0.123923205 -0.27005726
0002c0 f2 16 28 bf a1 15 62 3f f7 a5 87 3f c6 6a a3 be
       -0.6566001 0.88314253 1.0597523 -0.319174
0002d0 40 e7 6d bf 22 b2 14 3e d8 e0 92 be 72 3c 54 be
       -0.92930984 0.14521077 -0.28687167 -0.20726183
0002e0 e9 6f 90 be 9c ad 6c 3f 08 b0 54 3e ee b1 18 be
       -0.2821038 0.92452407 0.20770276 -0.14911625
0002f0 45 97 df be 94 19 25 3f 1d d9 c2 3e 69 11 d9 3d
       -0.43670097 0.64492154 0.3805627 0.10599024
000300 26 69 0e bf 97 5c 9a 3f 81 77 04 be f6 86 5d 3f
       -0.55629194 1.2059506 -0.12936212 0.8653406
000310 99 62 05 3f a4 ba 5f 3f d8 f8 2c 3f 86 15 18 3f
       0.52103573 0.87394166 0.67567205 0.5940784
000320 3e f7 40 3f d0 37 c8 be b7 13 2d 3d 63 bb 33 3f
       0.7537726 -0.39105082 0.04225513 0.70207804
000330 b2 24 d4 3e 7a 5d 72 3e 1f 7e eb 3e b8 f5 cc 3e
       0.41434246 0.23668471 0.4599466 0.4003122
000340 37 55 44 3d f3 2f 4e 3f c1 9b 30 bf 98 39 07 be
       0.04793283 0.80541915 -0.6898766 -0.13205564
000350 1e 44 37 bf 2e 81 11 3f 58 54 35 3f 18 3f 07 3c
       -0.71588314 0.5683774 0.70831823 0.008254789
000360 7a c7 97 3e 07 13 f7 3e c3 ef 82 3f e4 09 9f 3e
       0.29644376 0.48256704 1.022942 0.31062233
000370 dc d7 38 3f e1 12 db 3e 80 06 e6 bd 7b 71 80 3e
       0.72204375 0.4278784 -0.112317085 0.2508658
000380 2c 10 80 bd d7 97 cd 3e a2 b2 5a 3f 31 94 47 3f
       -0.062530845 0.40154907 0.8542882 0.779605
000390 98 f1 91 3f 68 cb 6e be 3c c5 9b bc 76 44 56 3d
       1.1401854 -0.23319781 -0.019014947 0.052311383
0003a0 4c 35 22 3d e2 b3 de 3e a4 56 0c 3e 02 a9 2d bf
       0.03960161 0.43496615 0.13704926 -0.6783601
0003b0 01 b2 0a be 52 48 6d 3f 72 4c 87 bf 15 72 62 bf
       -0.13544466 0.9268848 -1.0570204 -0.88455325
0003c0 f2 5d f5 3d 5c 3d e7 3d 0e 50 15 bf d5 09 af 3e
       0.11980809 0.11291 -0.5832528 0.3418719
0003d0 f5 b2 32 3f 98 a5 ab be f5 e7 32 bf 22 7b 16 3d
       0.69804317 -0.33524776 -0.6988519 0.036738522
0003e0 7c 63 98 bc d8 2c c0 bd 24 35 13 bf 3a eb 39 bf
       -0.018602125 -0.09383553 -0.5750296 -0.7262455
0003f0 0d ce ad 3e 0f 2d 84 3d 64 8b 66 bc 9c 12 27 3e
       0.33946267 0.06453907 -0.014071319 0.16315693

model_1/sequential_2/model_2/layer5/depthwise_conv/depthwise_weights_fused_bn f4 [128, 1, 3, 3]
000000 91 c4 06 3f 41 4e b8 3e 89 7b 74 3d dd ed d3 3e
       0.52643687 0.35997203 0.059688125 0.41392413
000010 c9 78 bb 3e b3 c7 d3 3d b0 db 10 be ac 67 a8 ba
       0.3661559 0.10340824 -0.14146304 -0.001284828
000020 fa 24 04 bd f6 84 69 3e 1c c9 f6 3e cc ab 97 3e
       -0.032261826 0.22804627 0.4820031 0.29623258
000030 e7 dd 68 3e f6 dd f0 3e f8 2a dc 3e 30 f6 8a 3d
       0.22740899 0.47044343 0.43001533 0.06785238
000040 d7 ab 67 3e 95 13 d6 bc b0 bd 90 be 63 92 10 be
       0.22624145 -0.026132384 -0.2826972 -0.14118342
000050 92 30 07 be ed 73 11 bf 5e 9a 2a bf b3 f0 b2 be
       -0.13202122 -0.56817514 -0.66641796 -0.34949264
000060 b7 b6 dd be 14 db 14 bf 83 46 19 be 70 72 8a be
       -0.43303463 -0.58146787 -0.14968304 -0.27040434
000070 38 20 df be 6d e4 6a be 41 9e 93 be e1 a3 f2 be
       -0.43579268 -0.229387 -0.28831676 -0.47390655
000080 db 0d 33 be 03 d3 09 be 97 1f 2a be 65 c4 9f 3c
       -0.17485754 -0.13459401 -0.16613613 0.019502828
000090 34 82 1f bf 6b 83 95 3e ba 60 28 3f b9 20 4d bf
       -0.6230805 0.29201826 0.65772593 -0.80128056
0000a0 a9 6a d1 3c fc 40 06 3f 43 10 0b bf e0 fe 0a be
       0.025563555 0.5244291 -0.5432169 -0.1357379
0000b0 b2 6e 72 3e c0 d5 87 bf 69 e1 8b bd 16 3f a9 3e
       0.2367504 -1.0612106 -0.06830103 0.33055943
0000c0 79 c4 8f bf c3 27 9e 3e fa 27 e6 3e 9a 9f 38 bf
       -1.1231834 0.3088971 0.44952375 -0.7211853
0000d0 4f 02 40 3e 03 8f aa 3e a6 f0 05 3f 5a a8 89 3e
       0.1875088 0.33312234 0.52320325 0.26886255
0000e0 c3 24 03 bf e5 f6 30 3f 23 24 1f 3f aa 04 f9 be
       -0.5122797 0.6912673 0.62164515 -0.4863637
0000f0 1f e5 8f 3d 5a 41 9a 3e 3f c2 42 3d 47 50 01 3f
       0.07026123 0.30127984 0.04754853 0.5051312
000100 4f 2c 74 3e a0 5c 08 bf 19 3c 3a 3f ba 8a d5 3e
       0.23845027 -0.53266335 0.7274795 0.41707402
000110 dd a3 35 bf b4 7f 1a 3e d5 2d 57 3e 66 73 27 bf
       -0.7095316 0.15087777 0.21013577 -0.6541046
000120 7b a5 a0 be b2 9f 39 bf a9 6b 91 be bd 79 36 3f
       -0.31376252 -0.725093 -0.2840245 0.7127951
000130 7e 83 d6 3e 46 fd f2 bd 09 30 b1 3e bf c9 ce 3e
       0.41897196 -0.11864714 0.3460696 0.40388295
000140 1c e3 f2 bd d1 d4 06 3f 51 78 c3 3e f2 b6 5e 3e
       -0.11859724 0.5266848 0.38177732 0.21749476
000150 1b 70 e4 3e 1a 6e 15 3f 40 1e 58 3e 85 ca 80 3d
       0.4461678 0.58371127 0.2110529 0.062886275
000160 58 ac ea 3d f2 d2 e0 bd 6c 06 09 3f 81 7f 00 3f
       0.11458653 -0.109777346 0.53525424 0.50194556
000170 71 f2 ff bc 71 c7 34 3f 00 4e 06 3f f1 b0 d3 3e
       -0.031243535 0.70616823 0.5246277 0.41345933
000180 cc 5b 63 3e 01 19 7a 3e 80 e0 15 3e 76 95 dc be
       0.22202986 0.244236 0.14636421 -0.4308278
000190 f4 a3 52 3e 3d 0e 52 3f 83 4f f1 be c8 16 6a bc
       0.20570356 0.82052976 -0.47130975 -0.014287658
0001a0 9d 85 3c 3f d9 fd a3 be 0c 94 a9 bd 8d 04 f9 bc
       0.7364138 -0.32029608 -0.08280191 -0.030397678
0001b0 b8 3f 22 3f d6 5c 09 3e 90 f8 d6 be 60 dd 49 3f
       0.6337848 0.1341432 -0.41986513 0.78853416
0001c0 d6 db 91 3c 53 3c 16 bf a6 4a 88 3d 8b da 83 be
       0.017805021 -0.586858 0.06654863 -0.25752673
0001d0 b4 27 ca bd b6 80 1a 3f 62 0e 2b 3d 2d f8 0f bd
       -0.09870854 0.6035265 0.041761763 -0.03514879
0001e0 39 f0 30 3f 8c f0 15 be d6 e5 d0 bd a1 83 d6 3e
       0.6911655 -0.14642543 -0.10200088 0.418973
0001f0 1a 6e fa bd 5d f4 d2 3b 94 b1 2c bf 04 cf 05 bf
       -0.122280315 0.006437822 -0.6745846 -0.52269006
000200 47 f6 82 be ae 5a 88 3e f0 7b a8 3e ac d4 56 3e
       -0.2557852 0.26631683 0.32907057 0.20979565
000210 89 30 03 3f 77 64 c3 3e be cb 56 3e 77 a1 a3 be
       0.51245934 0.38162586 0.20976159 -0.31959125
000220 7d 3f f4 be 8e 40 1d be d3 8f 09 bf 04 ae 23 bf
       -0.47704688 -0.15356657 -0.53735083 -0.639374
000230 1d f2 57 be de f1 9f be 95 31 b4 be 48 aa ca bd
       -0.21088453 -0.31239218 -0.35194078 -0.0989576
000240 84 62 03 3f 96 47 50 3f e8 36 bd 3e b2 60 5f be
       0.513222 0.8135923 0.36955953 -0.2181423
000250 e1 6a 6a bd d7 78 a9 bd ae ce ad bd ea b1 a9 bd
       -0.057230834 -0.082750015 -0.08486687 -0.082858875
000260 82 e8 3b be 1e f4 d5 3e 4e 81 cd 3e df ca 9a 3c
       -0.18350413 0.4178781 0.40137714 0.018895565
000270 52 c4 ef 3e c7 dd 08 3f 99 9c 42 3e 39 eb 5b 3e
       0.46829468 0.53463405 0.1900505 0.21476449
000280 a9 b5 93 3e 42 24 3a 3e 2b f3 d7 3e 0f 66 51 3e
       0.28849533 0.18177894 0.4217771 0.20449089
000290 7f 57 94 be 33 31 20 3f 1d ad c1 3e 11 5a 8c be
       -0.28973004 0.6257507 0.37827387 -0.27412465
0002a0 f4 4d 60 3e 2a f7 38 3e 44 02 4b 3c ee 69 38 3f
       0.21904737 0.18063036 0.012390677 0.72036636
0002b0 ae 8e 9f bc 7a bd 60 be dc c6 60 3f e2 d0 2d 3e
       -0.019477215 -0.2194728 0.87803435 0.16974214
0002c0 d8 34 0b bf 10 c5 59 3e cc c0 68 3d 1b b2 19 be
       -0.5437751 0.2126658 0.05682449 -0.15009348
0002d0 29 10 68 be a9 37 a7 be 44 9f 01 be 84 dc f7 be
       -0.22662415 -0.32659653 -0.12658411 -0.48410428
0002e0 3a 54 2e bf 11 40 cd be 76 2b 5e be 16 b5 d7 be
       -0.6809727 -0.4008794 -0.21696267 -0.42130345
0002f0 04 25 59 be c0 2c 8b be dc 5a c2 3d ee 68 40 3f
       -0.21205527 -0.2718258 0.09489986 0.7516011
000300 68 f0 0c bd e1 33 b5 3e 79 e8 5a 3f 72 c1 12 be
       -0.034408957 0.35391143 0.85510975 -0.14331606
000310 f4 96 6e 3e bc be e0 3e 67 48 07 3f 22 98 3e 3f
       0.23299772 0.4389552 0.5284485 0.74450886
000320 56 58 89 3e 38 3e 07 bf 1a a4 b9 be 46 45 35 be
       0.26825207 -0.52829313 -0.36258012 -0.17702207
000330 52 cb a6 bd 14 8d 0c be 59 2b e7 bd 3b 63 c5 3e
       -0.08144249 -0.13725692 -0.11287565 0.3855227
000340 74 e4 75 3e 75 8a 0f bf ca ac 1a 3f 3b 6e e2 3e
       0.24012929 -0.56070644 0.60419905 0.44224724
000350 f2 58 15 bf c7 c5 9f 3e d1 97 b0 3e 35 41 cc bd
       -0.58338845 0.3120558 0.34490827 -0.09973375
000360 6b e1 09 3f f9 be 21 3f 2f 0c 88 3c 71 e9 e9 3e
       0.53859586 0.63182026 0.016607372 0.45685914
000370 c7 e8 d6 3e fd 4e ff 3d de af 19 be 4c 6e ee bd
       0.4197447 0.12466238 -0.15008494 -0.11642131
000380 ba 7f 94 bd 72 79 90 be 4e 97 d6 be 22 3e 8a bd
       -0.072509244 -0.28217655 -0.4191231 -0.06750132
000390 95 9a e9 be 89 16 07 bf 35 cb 76 be c1 83 89 be
       -0.4562575 -0.5276876 -0.24100955 -0.26858333
0003a0 7d e0 a6 be 44 85 db bd 72 e2 ee bd e6 fb 72 be
       -0.32593146 -0.10718778 -0.11664285 -0.23728904
0003b0 8a e0 9d be e8 21 16 3f 28 8b 3a 3f ba 7b 41 3e
       -0.30835372 0.58645487 0.72868586 0.18894854
0003c0 e9 bc 06 bf 88 9c b8 be 99 ce b0 bd fc 87 93 3e
       -0.52632004 -0.36056924 -0.086331554 0.28814685
0003d0 a0 39 21 3f 2d 0f 82 3e 0a bf 07 3f 4b ee 7b 3f
       0.62978554 0.25402203 0.5302588 0.9841048
0003e0 e0 1c fc 3e 16 34 5c 3e 6e 68 ab 3e 7d f9 00 3e
       0.4924078 0.21504244 0.3347811 0.12595172
0003f0 43 38 04 be a0 93 80 be 67 73 2d be b5 33 00 3f
       -0.12912087 -0.2511263 -0.16938554 0.500789
