image_classification/mobilenetv1/ST_pretrainedmodel_public_dataset/flowers/mobilenet_v1_0.25_96_tfs/mobilenet_v1_0.25_96_tfs_int8.tflite (tflite, 308168 bytes, 28 tensors)

mobilenet_v1_alpha_0.25/conv2d/Conv2D i1 [8, 3, 3, 3]
00000000: e1d3 32dc 0a69 f62a 4d03 d321 0809 7f25
00000010: fa6a cfe3 37ec d030 14d3 2be2 ec3d e5f4
00000020: 29f3 fc16 fff7 0623 06d4 4a28 a315 ec02
00000030: 6e1f 814a 179b a838 ec85 c217 a815 27a4
00000040: 0014 d6e1 fa29 395e 02f8 e613 fb01 1364
00000050: 7f47 79dd 4e0c b623 f7c8 587f f843 74f5
00000060: 3bd7 f81d 4bf9 650b 0b7d ee2e 0de8 0be8
00000070: 172f f2d3 f940 6864 54f5 57fb e3ff 797f
00000080: 4729 537c 08dc 3d46 9d06 5281 362c b640
00000090: 49a9 024f a425 30b9 3620 e000 27c7 1d25
000000a0: cb1f 1ded c51f e4a8 1fe0 e71f f1c1 3ac4
000000b0: 8120 d2cd 10e7 ed0f d5cd 16ca 00c7 ff1f
000000c0: 9ad4 a974 230e 7f3b 34c0 e7fa cce6 cced
000000d0: e501 2414 470f 0000
-31 -45 50 -36 10 105 -10 42
77 3 -45 33 8 9 127 37
-6 106 -49 -29 55 -20 -48 48
20 -45 43 -30 -20 61 -27 -12
41 -13 -4 22 -1 -9 6 35
6 -44 74 40 -93 21 -20 2
110 31 -127 74 23 -101 -88 56
-20 -123 -62 23 -88 21 39 -92
0 20 -42 -31 -6 41 57 94
2 -8 -26 19 -5 1 19 100
127 71 121 -35 78 12 -74 35
-9 -56 88 127 -8 67 116 -11
59 -41 -8 29 75 -7 101 11
11 125 -18 46 13 -24 11 -24
23 47 -14 -45 -7 64 104 100
84 -11 87 -5 -29 -1 121 127
71 41 83 124 8 -36 61 70
-99 6 82 -127 54 44 -74 64
73 -87 2 79 -92 37 48 -71
54 32 -32 0 39 -57 29 37
-53 31 29 -19 -59 31 -28 -88
31 -32 -25 31 -15 -63 58 -60
-127 32 -46 -51 16 -25 -19 15
-43 -51 22 -54 0 -57 -1 31
-102 -44 -87 116 35 14 127 59
52 -64 -25 -6 -52 -26 -52 -19
-27 1 36 20 71 15 0 0

mobilenet_v1_alpha_0.25/conv_dw_1_bn/FusedBatchNormV3;mobilenet_v1_alpha_0.25/conv_dw_1/depthwise i1 [1, 3, 3, 8]
00000000: 0e7f 8b67 c31f 3d05 fb01 0841 b7ff f7ee
00000010: f4d9 d881 f6de d2e9 44f3 b275 f87f 7ff1
00000020: 4cfd cd7b 0f31 19b6 c5f6 cca9 d1ce ca7f
00000030: 7fd5 d4e6 e9f9 fd00 1707 c0df d9e6 f5fc
00000040: c1f4 81c8 81f8 eafa
14 127 -117 103 -61 31 61 5
-5 1 8 65 -73 -1 -9 -18
-12 -39 -40 -127 -10 -34 -46 -23
68 -13 -78 117 -8 127 127 -15
76 -3 -51 123 15 49 25 -74
-59 -10 -52 -87 -47 -50 -54 127
127 -43 -44 -26 -23 -7 -3 0
23 7 -64 -33 -39 -26 -11 -4
-63 -12 -127 -56 -127 -8 -22 -6

mobilenet_v1_alpha_0.25/conv_pw_1/Conv2D i1 [16, 1, 1, 8]
00000000: 217f 2d10 16e5 18f5 49c6 01a1 e781 efb8
00000010: 01f8 13f9 ff06 f57f e3cd 9b81 1699 c20e
00000020: 13e7 1a02 327f b803 81c3 17a1 0336 dc36
00000030: dcfc 26d7 42f0 7f01 2617 55c3 d010 7f04
00000040: e87f fb1b f8f1 0903 17e2 0816 180e 8103
00000050: 1e13 ab00 fe7f 040b 48f9 1f7f ef28 25dc
00000060: bb17 7f88 47bf dd83 ce14 a746 f67f fb1b
00000070: 2728 1992 f47f 19f3 cc08 1f06 017f e0fc
33 127 45 16 22 -27 24 -11
73 -58 1 -95 -25 -127 -17 -72
1 -8 19 -7 -1 6 -11 127
-29 -51 -101 -127 22 -103 -62 14
19 -25 26 2 50 127 -72 3
-127 -61 23 -95 3 54 -36 54
-36 -4 38 -41 66 -16 127 1
38 23 85 -61 -48 16 127 4
-24 127 -5 27 -8 -15 9 3
23 -30 8 22 24 14 -127 3
30 19 -85 0 -2 127 4 11
72 -7 31 127 -17 40 37 -36
-69 23 127 -120 71 -65 -35 -125
-50 20 -89 70 -10 127 -5 27
39 40 25 -110 -12 127 25 -13
-52 8 31 6 1 127 -32 -4

mobilenet_v1_alpha_0.25/conv_dw_2_bn/FusedBatchNormV3;mobilenet_v1_alpha_0.25/conv_dw_2/depthwise i1 [1, 3, 3, 16]
00000000: 5b7f 46f7 b7ce fa81 953b f64f 0881 db1b
00000010: 6c7b 51b2 8147 81c4 a47f f67f 81ec 817f
00000020: 0d1c 080b b14c b3e7 8144 bb73 ba49 9d36
00000030: 341e 6328 ca18 36d1 b252 7f26 46b0 d7fa
00000040: 7f43 7f21 b76f faa5 a554 5921 50b2 c631
00000050: 6005 2c45 c77f e894 88d4 cf35 a8dc d208
00000060: 0cc6 18ce 3225 31c7 ece7 10e4 5add 12c9
00000070: 31bf 3747 fc22 52ac 8bcc dbcc 6988 47ca
00000080: 36cd 1f7f ed1e 2bdf 9199 d91c 22b1 1be3
91 127 70 -9 -73 -50 -6 -127
-107 59 -10 79 8 -127 -37 27
108 123 81 -78 -127 71 -127 -60
-92 127 -10 127 -127 -20 -127 127
13 28 8 11 -79 76 -77 -25
-127 68 -69 115 -70 73 -99 54
52 30 99 40 -54 24 54 -47
-78 82 127 38 70 -80 -41 -6
127 67 127 33 -73 111 -6 -91
-91 84 89 33 80 -78 -58 49
96 5 44 69 -57 127 -24 -108
-120 -44 -49 53 -88 -36 -46 8
12 -58 24 -50 50 37 49 -57
-20 -25 16 -28 90 -35 18 -55
49 -65 55 71 -4 34 82 -84
-117 -52 -37 -52 105 -120 71 -54
54 -51 31 127 -19 30 43 -33
-111 -103 -39 28 34 -79 27 -29

mobilenet_v1_alpha_0.25/conv_pw_2/Conv2D i1 [32, 1, 1, 16]
00000000: f1d8 340b 06d5 7fc2 261c 0b0d 0509 1ac1
00000010: c1db ea09 c7be 7f84 f06b d60a df36 5b50
00000020: 2ece 1b3c f719 16f4 c5d8 7f18 0aed d538
00000030: ec7f 1be7 2de6 33fb fd64 e146 f015 4fb5
00000040: c632 2405 df0f ea05 e60e 15cf 7781 fbbc
00000050: 7fc8 3330 ff08 e344 b013 f4db d31c 091b
00000060: e615 0305 0b0f 00d2 0a4d 7ff1 19e9 dff4
00000070: 558d fee9 d1ba 2722 b437 017f fdaa 072f
00000080: a8ea 7f06 0a1f faf0 34f2 f706 21f9 15ee
00000090: 20c3 15ec 5022 abfb 1c81 f817 0222 fafc
000000a0: 2941 043a 6981 35ff 900c 45f7 0b63 7f8e
000000b0: 7510 14eb 7dad dbd2 9b81 f322 ea31 51af
000000c0: d87f 010d ed1b c2c9 d4ee 2bd8 cbc9 df9c
000000d0: 6639 f49e 8109 15c5 2b3b f735 0327 d3b1
000000e0: 7fe4 e615 ba15 85e6 46c2 da38 31bc d80d
000000f0: 571c fec5 b8e6 31e9 8133 f2de 21f9 0cd3
-15 -40 52 11 6 -43 127 -62
38 28 11 13 5 9 26 -63
-63 -37 -22 9 -57 -66 127 -124
-16 107 -42 10 -33 54 91 80
46 -50 27 60 -9 25 22 -12
-59 -40 127 24 10 -19 -43 56
-20 127 27 -25 45 -26 51 -5
-3 100 -31 70 -16 21 79 -75
-58 50 36 5 -33 15 -22 5
-26 14 21 -49 119 -127 -5 -68
127 -56 51 48 -1 8 -29 68
-80 19 -12 -37 -45 28 9 27
-26 21 3 5 11 15 0 -46
10 77 127 -15 25 -23 -33 -12
85 -115 -2 -23 -47 -70 39 34
-76 55 1 127 -3 -86 7 47
-88 -22 127 6 10 31 -6 -16
52 -14 -9 6 33 -7 21 -18
32 -61 21 -20 80 34 -85 -5
28 -127 -8 23 2 34 -6 -4
41 65 4 58 105 -127 53 -1
-112 12 69 -9 11 99 127 -114
117 16 20 -21 125 -83 -37 -46
-101 -127 -13 34 -22 49 81 -81
-40 127 1 13 -19 27 -62 -55
-44 -18 43 -40 -53 -55 -33 -100
102 57 -12 -98 -127 9 21 -59
43 59 -9 53 3 39 -45 -79
127 -28 -26 21 -70 21 -123 -26
70 -62 -38 56 49 -68 -40 13
87 28 -2 -59 -72 -26 49 -23
-127 51 -14 -34 33 -7 12 -45

mobilenet_v1_alpha_0.25/conv_dw_3_bn/FusedBatchNormV3;mobilenet_v1_alpha_0.25/conv_dw_3/depthwise;mobilenet_v1_alpha_0.25/conv_dw_4/depthwise i1 [1, 3, 3, 32]
00000000: 8141 21de 53a7 fb2c e1a4 81d0 ee7c 2e81
00000010: c4fb b1db 0c84 e7c6 1d31 a4a5 a93e 006b
00000020: a3af 47ec ebcd 7f08 c341 d420 a57f ca12
00000030: 00a2 a8fc 4f8d 7aba 4b7f 8181 ca7f 3279
00000040: b89f ca53 a905 4d2c 2623 9fd8 81e3 0546
00000050: e4fb d2eb 0081 b6c2 44df 42c5 9248 3b06
00000060: a07f 3beb 6a81 2933 031d 9ee3 f50c b993
00000070: b148 53d1 7fa8 a7dd 28ce 3ad0 b25a 737f
00000080: c878 ec7f 7f07 c681 816c 9c34 c9ec 8173
00000090: a07f 372b 4ee4 4949 adf2 09a9 906d 7f49
000000a0: a767 e21e 8d34 eca1 cd7f 937f c54d d64b
000000b0: a2a4 cc7f 09ef 7ff4 81d5 60d4 ef23 22f6
000000c0: 9e01 8141 a0e9 bb21 21ee d8ee fcca f2c1
000000d0: 9246 7fb4 ee8e acda 2715 13e0 81fb c2e6
000000e0: b853 bb52 2ee9 cc0a 086f b311 d6f8 8dee
000000f0: 81c0 4ef6 35dc 987f bbee 509d a608 36ad
-127 65 33 -34 83 -89 -5 44
-31 -92 -127 -48 -18 124 46 -127
-60 -5 -79 -37 12 -124 -25 -58
29 49 -92 -91 -87 62 0 107
-93 -81 71 -20 -21 -51 127 8
-61 65 -44 32 -91 127 -54 18
0 -94 -88 -4 79 -115 122 -70
75 127 -127 -127 -54 127 50 121
-72 -97 -54 83 -87 5 77 44
38 35 -97 -40 -127 -29 5 70
-28 -5 -46 -21 0 -127 -74 -62
68 -33 66 -59 -110 72 59 6
-96 127 59 -21 106 -127 41 51
3 29 -98 -29 -11 12 -71 -109
-79 72 83 -47 127 -88 -89 -35
40 -50 58 -48 -78 90 115 127
-56 120 -20 127 127 7 -58 -127
-127 108 -100 52 -55 -20 -127 115
-96 127 55 43 78 -28 73 73
-83 -14 9 -87 -112 109 127 73
-89 103 -30 30 -115 52 -20 -95
-51 127 -109 127 -59 77 -42 75
-94 -92 -52 127 9 -17 127 -12
-127 -43 96 -44 -17 35 34 -10
-98 1 -127 65 -96 -23 -69 33
33 -18 -40 -18 -4 -54 -14 -63
-110 70 127 -76 -18 -114 -84 -38
39 21 19 -32 -127 -5 -62 -26
-72 83 -69 82 46 -23 -52 10
8 111 -77 17 -42 -8 -115 -18
-127 -64 78 -10 53 -36 -104 127
-69 -18 80 -99 -90 8 54 -83

mobilenet_v1_alpha_0.25/conv_pw_3/Conv2D i1 [32, 1, 1, 32]
00000000: db24 1c16 f747 1bb1 8981 3a94 3659 fb20
00000010: d8df 01c2 2009 49bc 4ae8 cbe2 31d8 c8e0
00000020: 94ec 1f95 be45 17f4 4047 cc3b 4d97 671e
00000030: f5f4 f746 5a49 db0d f12a c22d 7f8d b22e
00000040: 7f11 0f02 26fc 0835 f706 31ef dd24 160a
00000050: cc10 ee25 11e4 ef1b d00b 00fb 0515 1bc0
00000060: f70c 35e6 7f10 5b45 30fc fbea 00f8 273d
00000070: 1d44 d6ef 0ee9 33d5 0af6 311a ccaa 95d1
00000080: 16f9 1f60 b8f5 ee08 0f07 abcb 2eea e7e2
00000090: 22be 667f d8e9 5368 42ff de2e 1dda eb23
000000a0: e5cb 0270 2dd7 e490 0cc3 00cf da17 4b05
000000b0: 65f8 1127 1836 107f 40de e721 28e3 c61b
000000c0: 26a6 fb41 fdb1 cb81 462e f429 1a37 cc04
000000d0: d5ac 1d68 a0fc 0647 da2d cd0b e3ff ef93
000000e0: c9ee f6e0 1f6d ed6d c3b6 a09b c8db 7ff0
000000f0: 3232 d4ce bdd2 06cd 3602 2e08 8dd1 108c
-37 36 28 22 -9 71 27 -79
-119 -127 58 -108 54 89 -5 32
-40 -33 1 -62 32 9 73 -68
74 -24 -53 -30 49 -40 -56 -32
-108 -20 31 -107 -66 69 23 -12
64 71 -52 59 77 -105 103 30
-11 -12 -9 70 90 73 -37 13
-15 42 -62 45 127 -115 -78 46
127 17 15 2 38 -4 8 53
-9 6 49 -17 -35 36 22 10
-52 16 -18 37 17 -28 -17 27
-48 11 0 -5 5 21 27 -64
-9 12 53 -26 127 16 91 69
48 -4 -5 -22 0 -8 39 61
29 68 -42 -17 14 -23 51 -43
10 -10 49 26 -52 -86 -107 -47
22 -7 31 96 -72 -11 -18 8
15 7 -85 -53 46 -22 -25 -30
34 -66 102 127 -40 -23 83 104
66 -1 -34 46 29 -38 -21 35
-27 -53 2 112 45 -41 -28 -112
12 -61 0 -49 -38 23 75 5
101 -8 17 39 24 54 16 127
64 -34 -25 33 40 -29 -58 27
38 -90 -5 65 -3 -79 -53 -127
70 46 -12 41 26 55 -52 4
-43 -84 29 104 -96 -4 6 71
-38 45 -51 11 -29 -1 -17 -109
-55 -18 -10 -32 31 109 -19 109
-61 -74 -96 -101 -56 -37 127 -16
50 50 -44 -50 -67 -46 6 -51
54 2 46 8 -115 -47 16 -116

mobilenet_v1_alpha_0.25/conv_dw_4_bn/FusedBatchNormV3;mobilenet_v1_alpha_0.25/conv_dw_4/depthwise i1 [1, 3, 3, 32]
00000000: 3549 433b c59f 6bd6 3cb3 c5db 5990 9f81
00000010: 8e55 d2ce d73a be58 0b96 3c7f 8146 33c9
00000020: 3548 4f39 978e 7381 efa3 8147 1fa6 819d
00000030: c451 bdc9 de09 bb58 4281 446d 98f4 4de1
00000040: 1c06 1a21 d4c4 00cd c611 ee7f fbb6 e2fd
00000050: 0d36 b2ef e7ec f113 2d9f 26fb c5d5 1414
00000060: 6566 3c6e 8181 7fe9 5f81 851b 7f8c c3cd
00000070: 814d c481 cc4c b155 3579 5076 9f1b 6bb8
00000080: 7f7f 7f7f a2b2 7c9a 7ba3 9431 4381 90ad
00000090: a87f b598 8170 817f 7f35 7f74 9f47 7f81
000000a0: 4564 54fc b6cd 38c3 f7a2 af5c e8c5 bec6
000000b0: be38 9adb d42b e476 519c 3119 a343 22be
000000c0: 3828 242c c752 0823 25aa aad6 0cca f40a
000000d0: ee2f 96c3 d81f bed0 1a73 2a14 d469 32e3
000000e0: 625a 6050 a2d1 2b93 7fbb 9dd6 48a0 d599
000000f0: 952a 81ca fb7f d84d 5a64 360b d57f 1bb5
53 73 67 59 -59 -97 107 -42
60 -77 -59 -37 89 -112 -97 -127
-114 85 -46 -50 -41 58 -66 88
11 -106 60 127 -127 70 51 -55
53 72 79 57 -105 -114 115 -127
-17 -93 -127 71 31 -90 -127 -99
-60 81 -67 -55 -34 9 -69 88
66 -127 68 109 -104 -12 77 -31
28 6 26 33 -44 -60 0 -51
-58 17 -18 127 -5 -74 -30 -3
13 54 -78 -17 -25 -20 -15 19
45 -97 38 -5 -59 -43 20 20
101 102 60 110 -127 -127 127 -23
95 -127 -123 27 127 -116 -61 -51
-127 77 -60 -127 -52 76 -79 85
53 121 80 118 -97 27 107 -72
127 127 127 127 -94 -78 124 -102
123 -93 -108 49 67 -127 -112 -83
-88 127 -75 -104 -127 112 -127 127
127 53 127 116 -97 71 127 -127
69 100 84 -4 -74 -51 56 -61
-9 -94 -81 92 -24 -59 -66 -58
-66 56 -102 -37 -44 43 -28 118
81 -100 49 25 -93 67 34 -66
56 40 36 44 -57 82 8 35
37 -86 -86 -42 12 -54 -12 10
-18 47 -106 -61 -40 31 -66 -48
26 115 42 20 -44 105 50 -29
98 90 96 80 -94 -47 43 -109
127 -69 -99 -42 72 -96 -43 -103
-107 42 -127 -54 -5 127 -40 77
90 100 54 11 -43 127 27 -75

mobilenet_v1_alpha_0.25/conv_pw_4/Conv2D i1 [64, 1, 1, 32]
00000000: 2648 ed22 ee0a 36dc c219 0d3b 2508 7fc7
00000010: b4bd e43a 0d50 ba13 6238 4d2f cd08 46a5
00000020: 560a eb02 ce0f 8fe0 1f1f f107 f67f 1a05
00000030: dfad ecb7 e5c5 24d9 03ef f6d8 9c01 3123
00000040: d547 e508 3b17 f7cc 153b 5cd9 f04b 81b1
00000050: a4f9 b3c2 1aba cf1d dfd6 d7e9 47d1 e41f
00000060: a84e 8134 08ef dddd edad df07 afe9 9b36
00000070: f393 dcd3 3460 4eba c21b 32e2 19eb e7e3
00000080: 5520 c008 eac7 e61a 0710 38f4 3f4d 0c02
00000090: e1ef 2c81 c2a5 d630 e81e ef34 812a 5bf1
000000a0: 0f9c 9aba 5e09 07c4 25f1 66d7 a0e3 0015
000000b0: e40e a948 0010 c79a 2cfe 81ad 75d8 89b7
000000c0: 7ff7 1bd7 a3eb 28ff e5e8 b80e e8e9 56fc
000000d0: 58ed 2cf8 1922 b337 1731 f2f0 811f e6d4
000000e0: 8191 04d5 8bfc 573f bfdd 0a1d 54e2 f4d5
000000f0: eff8 10d9 d4a3 b92a a7fb 235d 8c01 bb14
38 72 -19 34 -18 10 54 -36
-62 25 13 59 37 8 127 -57
-76 -67 -28 58 13 80 -70 19
98 56 77 47 -51 8 70 -91
86 10 -21 2 -50 15 -113 -32
31 31 -15 7 -10 127 26 5
-33 -83 -20 -73 -27 -59 36 -39
3 -17 -10 -40 -100 1 49 35
-43 71 -27 8 59 23 -9 -52
21 59 92 -39 -16 75 -127 -79
-92 -7 -77 -62 26 -70 -49 29
-33 -42 -41 -23 71 -47 -28 31
-88 78 -127 52 8 -17 -35 -35
-19 -83 -33 7 -81 -23 -101 54
-13 -109 -36 -45 52 96 78 -70
-62 27 50 -30 25 -21 -25 -29
85 32 -64 8 -22 -57 -26 26
7 16 56 -12 63 77 12 2
-31 -17 44 -127 -62 -91 -42 48
-24 30 -17 52 -127 42 91 -15
15 -100 -102 -70 94 9 7 -60
37 -15 102 -41 -96 -29 0 21
-28 14 -87 72 0 16 -57 -102
44 -2 -127 -83 117 -40 -119 -73
127 -9 27 -41 -93 -21 40 -1
-27 -24 -72 14 -24 -23 86 -4
88 -19 44 -8 25 34 -77 55
23 49 -14 -16 -127 31 -26 -44
-127 -111 4 -43 -117 -4 87 63
-65 -35 10 29 84 -30 -12 -43
-17 -8 16 -39 -44 -93 -71 42
-89 -5 35 93 -116 1 -69 20

mobilenet_v1_alpha_0.25/conv_dw_5_bn/FusedBatchNormV3;mobilenet_v1_alpha_0.25/conv_dw_5/depthwise;mobilenet_v1_alpha_0.25/conv_dw_6/depthwise i1 [1, 3, 3, 64]
00000000: 23db b5ce c9ac f5c5 81ba d06f d012 a3ea
00000010: cab7 928b 9254 3ebe b03d 7f90 92d7 9835
00000020: f7f4 dcc8 1eb1 cbf1 cb7f c877 07ea 3f4a
00000030: b126 9f15 8e29 ff0f 2308 90c3 e60c e624
00000040: 34b5 9081 aecd e32e d042 8938 a981 13f7
00000050: ade9 d181 8147 6bcc e5fe 5c49 9bd3 81d6
00000060: c273 341d 3100 81fe 811c 98dd 914a 7f7f
00000070: c62e b10d c32d fe81 029d b7a9 7f16 23f0
00000080: ef23 97d2 cc81 fc22 9f4f b4d4 d289 6ff2
00000090: 81f5 ddcf bcea fdd7 9613 f21f d193 f8d3
000000a0: 007f 67f9 e74a e521 99d7 20c6 e9fd 0069
000000b0: bbfe f0bc d114 df84 dfc4 dda8 cc4d 2fe6
000000c0: 2ae7 1bbf 8106 81e4 b6d2 b07f d14a 8e08
000000d0: ba48 0694 8c3f 7f84 c87f febc c8bd 70e2
000000e0: c6e7 c5be 5db0 a879 81f5 a66c 272b f98e
000000f0: b1fc 81c2 f846 816e 7fbc b781 069c 057f
35 -37 -75 -50 -55 -84 -11 -59
-127 -70 -48 111 -48 18 -93 -22
-54 -73 -110 -117 -110 84 62 -66
-80 61 127 -112 -110 -41 -104 53
-9 -12 -36 -56 30 -79 -53 -15
-53 127 -56 119 7 -22 63 74
-79 38 -97 21 -114 41 -1 15
35 8 -112 -61 -26 12 -26 36
52 -75 -112 -127 -82 -51 -29 46
-48 66 -119 56 -87 -127 19 -9
-83 -23 -47 -127 -127 71 107 -52
-27 -2 92 73 -101 -45 -127 -42
-62 115 52 29 49 0 -127 -2
-127 28 -104 -35 -111 74 127 127
-58 46 -79 13 -61 45 -2 -127
2 -99 -73 -87 127 22 35 -16
-17 35 -105 -46 -52 -127 -4 34
-97 79 -76 -44 -46 -119 111 -14
-127 -11 -35 -49 -68 -22 -3 -41
-106 19 -14 31 -47 -109 -8 -45
0 127 103 -7 -25 74 -27 33
-103 -41 32 -58 -23 -3 0 105
-69 -2 -16 -68 -47 20 -33 -124
-33 -60 -35 -88 -52 77 47 -26
42 -25 27 -65 -127 6 -127 -28
-74 -46 -80 127 -47 74 -114 8
-70 72 6 -108 -116 63 127 -124
-56 127 -2 -68 -56 -67 112 -30
-58 -25 -59 -66 93 -80 -88 121
-127 -11 -90 108 39 43 -7 -114
-79 -4 -127 -62 -8 70 -127 110
127 -68 -73 -127 6 -100 5 127

mobilenet_v1_alpha_0.25/conv_pw_5/Conv2D i1 [64, 1, 1, 64]
00000000: 29f3 d7e8 0ec7 fcd8 31df e721 0a8d f6f9
00000010: 0017 c3f5 071c 17d2 2be8 d4d7 23fd 7ffd
00000020: 51c7 3a1c 0e18 2bed b406 1e06 e545 f7de
00000030: 0338 c1c1 d0ce d091 97cf fc50 49fe d175
00000040: c1f5 03ca e50f ef45 0f64 d23d 47cf d1ff
00000050: 16f5 e7c0 f4eb 3ad9 f5fa e0b8 c8fe 071c
00000060: 06c1 1a1f d215 1fee 2b19 d0bf ee08 d6f1
00000070: 0305 45f7 7fe2 ca41 dca2 20b0 f2db da3a
00000080: b3ef 7f14 a643 37f8 eb1d bae2 e30a fc48
00000090: c40b 06dc e716 40ca b495 1e33 11a9 6bb6
000000a0: d567 fd10 4a00 0e1c 40fe f44a f1ec 5ba7
000000b0: ca0f 0da5 2773 b4ac 7e18 791d 10c2 e64d
000000c0: 003a 12e5 4209 0b02 8134 abe7 f0e9 f5cb
000000d0: bf04 0ab9 fa10 073f fc18 2210 a7db d439
000000e0: 3621 df17 1b3b 07dd 25cc fcdf 34bf 323c
000000f0: 0b92 19f3 1055 4654 bfee f4ef ff1e cb42
41 -13 -41 -24 14 -57 -4 -40
49 -33 -25 33 10 -115 -10 -7
0 23 -61 -11 7 28 23 -46
43 -24 -44 -41 35 -3 127 -3
81 -57 58 28 14 24 43 -19
-76 6 30 6 -27 69 -9 -34
3 56 -63 -63 -48 -50 -48 -111
-105 -49 -4 80 73 -2 -47 117
-63 -11 3 -54 -27 15 -17 69
15 100 -46 61 71 -49 -47 -1
22 -11 -25 -64 -12 -21 58 -39
-11 -6 -32 -72 -56 -2 7 28
6 -63 26 31 -46 21 31 -18
43 25 -48 -65 -18 8 -42 -15
3 5 69 -9 127 -30 -54 65
-36 -94 32 -80 -14 -37 -38 58
-77 -17 127 20 -90 67 55 -8
-21 29 -70 -30 -29 10 -4 72
-60 11 6 -36 -25 22 64 -54
-76 -107 30 51 17 -87 107 -74
-43 103 -3 16 74 0 14 28
64 -2 -12 74 -15 -20 91 -89
-54 15 13 -91 39 115 -76 -84
126 24 121 29 16 -62 -26 77
0 58 18 -27 66 9 11 2
-127 52 -85 -25 -16 -23 -11 -53
-65 4 10 -71 -6 16 7 63
-4 24 34 16 -89 -37 -44 57
54 33 -33 23 27 59 7 -35
37 -52 -4 -33 52 -65 50 60
11 -110 25 -13 16 85 70 84
-65 -18 -12 -17 -1 30 -53 66

mobilenet_v1_alpha_0.25/conv_dw_6_bn/FusedBatchNormV3;mobilenet_v1_alpha_0.25/conv_dw_6/depthwise i1 [1, 3, 3, 64]
00000000: 3b97 8c81 81b5 817e d146 4e56 50ad 507f
00000010: 3526 de13 6668 b1f2 b1fa 7fa4 3b55 0f00
00000020: 3196 0249 df6c 5b0a 3d7f dabb e759 6b9d
00000030: e4aa 206f 248b 817f 5071 7fba 81b1 18d4
00000040: 3389 c9b2 9981 8962 ba3a 217f 7eba 291b
00000050: 26f2 8b81 9545 14cc 6181 7688 537f 564f
00000060: 45cb 1436 8161 371e 06f5 818a a05f 15c5
00000070: d6c5 137f 4581 8576 7f72 1458 cec8 5881
00000080: d2eb 9ec9 1501 bbc3 27f5 d32b 2a12 e1f0
00000090: 45cd e0d8 ce26 7f01 6be7 0094 5001 4d68
000000a0: 51c9 1be9 d6ec 98b7 bba1 c5f8 dd44 979f
000000b0: 0913 ba27 7fd9 3041 0e3f ec7f ddea 71a7
000000c0: 6481 b986 b8c4 0335 127e 7f55 2b8b 646d
000000d0: 36ca f4aa 7f6c aec1 8141 5835 624f f4ae
000000e0: 24d8 334a 1740 fc4f 7f07 be81 d86c 7f91
000000f0: af81 5a1d 5acd 0156 6641 5df2 baaf 35ad
59 -105 -116 -127 -127 -75 -127 126
-47 70 78 86 80 -83 80 127
53 38 -34 19 102 104 -79 -14
-79 -6 127 -92 59 85 15 0
49 -106 2 73 -33 108 91 10
61 127 -38 -69 -25 89 107 -99
-28 -86 32 111 36 -117 -127 127
80 113 127 -70 -127 -79 24 -44
51 -119 -55 -78 -103 -127 -119 98
-70 58 33 127 126 -70 41 27
38 -14 -117 -127 -107 69 20 -52
97 -127 118 -120 83 127 86 79
69 -53 20 54 -127 97 55 30
6 -11 -127 -118 -96 95 21 -59
-42 -59 19 127 69 -127 -123 118
127 114 20 88 -50 -56 88 -127
-46 -21 -98 -55 21 1 -69 -61
39 -11 -45 43 42 18 -31 -16
69 -51 -32 -40 -50 38 127 1
107 -25 0 -108 80 1 77 104
81 -55 27 -23 -42 -20 -104 -73
-69 -95 -59 -8 -35 68 -105 -97
9 19 -70 39 127 -39 48 65
14 63 -20 127 -35 -22 113 -89
100 -127 -71 -122 -72 -60 3 53
18 126 127 85 43 -117 100 109
54 -54 -12 -86 127 108 -82 -63
-127 65 88 53 98 79 -12 -82
36 -40 51 74 23 64 -4 79
127 7 -66 -127 -40 108 127 -111
-81 -127 90 29 90 -51 1 86
102 65 93 -14 -70 -81 53 -83

mobilenet_v1_alpha_0.25/conv_pw_6/Conv2D i1 [128, 1, 1, 64]
00000000: 51fa fbe4 fc23 11ec 1b17 7f13 07d8 360f
00000010: 16f8 1001 fcfd d6e8 f415 fd10 cf15 fefe
00000020: fdf1 fa1b 1639 18f4 0128 fed0 f904 49e9
00000030: c3f5 080b 0dfd fe0c 07fb f1f6 e30c 49dd
00000040: eb81 49f4 ea08 dc67 be53 fea2 07f6 35f5
00000050: 30ec 3b1f 0321 daef f6e3 72d4 f574 21ff
00000060: 6515 d7f4 040d c018 12fa ec17 d855 2ff0
00000070: 22d7 dcdd 1108 fc08 9cd4 2f09 0a0f dcd2
00000080: fd17 f2be b2ca 1721 1703 e2de 20e4 fee7
00000090: 1306 f3ee 0b27 0a09 e5d5 f40d eb03 cdd9
000000a0: fe06 187f 0f01 0fe6 45f9 121c f916 3bff
000000b0: 56ff f7fe 13ef e2eb 04e0 04ea f53d 30dc
000000c0: d712 031a 03b3 4a6a 67ab b3f6 dbd5 cb22
000000d0: 3e21 f5fe 38d3 0a10 651c dcd3 ebcb 2409
000000e0: 3cac f0e1 073f eb03 f82d 1e24 03e6 f2e4
000000f0: 23fa a24d fbff da44 ae00 21fa 815a 0bda
81 -6 -5 -28 -4 35 17 -20
27 23 127 19 7 -40 54 15
22 -8 16 1 -4 -3 -42 -24
-12 21 -3 16 -49 21 -2 -2
-3 -15 -6 27 22 57 24 -12
1 40 -2 -48 -7 4 73 -23
-61 -11 8 11 13 -3 -2 12
7 -5 -15 -10 -29 12 73 -35
-21 -127 73 -12 -22 8 -36 103
-66 83 -2 -94 7 -10 53 -11
48 -20 59 31 3 33 -38 -17
-10 -29 114 -44 -11 116 33 -1
101 21 -41 -12 4 13 -64 24
18 -6 -20 23 -40 85 47 -16
34 -41 -36 -35 17 8 -4 8
-100 -44 47 9 10 15 -36 -46
-3 23 -14 -66 -78 -54 23 33
23 3 -30 -34 32 -28 -2 -25
19 6 -13 -18 11 39 10 9
-27 -43 -12 13 -21 3 -51 -39
-2 6 24 127 15 1 15 -26
69 -7 18 28 -7 22 59 -1
86 -1 -9 -2 19 -17 -30 -21
4 -32 4 -22 -11 61 48 -36
-41 18 3 26 3 -77 74 106
103 -85 -77 -10 -37 -43 -53 34
62 33 -11 -2 56 -45 10 16
101 28 -36 -45 -21 -53 36 9
60 -84 -16 -31 7 63 -21 3
-8 45 30 36 3 -26 -14 -28
35 -6 -94 77 -5 -1 -38 68
-82 0 33 -6 -127 90 11 -38

mobilenet_v1_alpha_0.25/conv_dw_7_bn/FusedBatchNormV3;mobilenet_v1_alpha_0.25/conv_dw_7/depthwise;mobilenet_v1_alpha_0.25/conv_dw_12/depthwise i1 [1, 3, 3, 128]
00000000: 77de ac18 81dc 8143 186e 9d63 fcae f654
00000010: c33c 967f ceba d681 9fad b781 b2ca 1e26
00000020: 5581 6702 e55f c7a1 8179 2a3b 997f e344
00000030: 883a 0ff1 9fc2 819e 7fbe 8186 0190 e4c8
00000040: a742 85b1 9f7f 8160 c470 cc65 c205 81a5
00000050: 3b18 5c18 17c4 0474 f0e5 f521 7fc3 cea0
00000060: 8e38 3ba2 c342 81fa 7fc0 f215 7fb0 16e9
00000070: 4881 8175 d51a 5595 8136 7e7f 16be 3dd2
00000080: c6b0 aa9e 04f8 235a 897f 1df5 e64f 873b
00000090: 9960 953f 0dd0 dcfd e0ce 8762 c70d 38f6
000000a0: 40b5 f27f 41a7 b426 8eed f1f1 b051 16f8
000000b0: a6f7 cae1 891f 7ec8 57e2 8dd5 e1c2 4f94
000000c0: 64b8 d530 e937 567f c6bd b95b c831 bcc6
000000d0: 206a 3d14 0cd8 0d5f fd81 7f03 e781 b99d
000000e0: e507 49ec d87f f92e 2cef 9be6 7890 57b4
000000f0: 21b1 a20d d808 1aa4 f8d3 ef2b 7f3b 3558
119 -34 -84 24 -127 -36 -127 67
24 110 -99 99 -4 -82 -10 84
-61 60 -106 127 -50 -70 -42 -127
-97 -83 -73 -127 -78 -54 30 38
85 -127 103 2 -27 95 -57 -95
-127 121 42 59 -103 127 -29 68
-120 58 15 -15 -97 -62 -127 -98
127 -66 -127 -122 1 -112 -28 -56
-89 66 -123 -79 -97 127 -127 96
-60 112 -52 101 -62 5 -127 -91
59 24 92 24 23 -60 4 116
-16 -27 -11 33 127 -61 -50 -96
-114 56 59 -94 -61 66 -127 -6
127 -64 -14 21 127 -80 22 -23
72 -127 -127 117 -43 26 85 -107
-127 54 126 127 22 -66 61 -46
-58 -80 -86 -98 4 -8 35 90
-119 127 29 -11 -26 79 -121 59
-103 96 -107 63 13 -48 -36 -3
-32 -50 -121 98 -57 13 56 -10
64 -75 -14 127 65 -89 -76 38
-114 -19 -15 -15 -80 81 22 -8
-90 -9 -54 -31 -119 31 126 -56
87 -30 -115 -43 -31 -62 79 -108
100 -72 -43 48 -23 55 86 127
-58 -67 -71 91 -56 49 -68 -58
32 106 61 20 12 -40 13 95
-3 -127 127 3 -25 -127 -71 -99
-27 7 73 -20 -40 127 -7 46
44 -17 -101 -26 120 -112 87 -76
33 -79 -94 13 -40 8 26 -92
-8 -45 -17 43 127 59 53 88

mobilenet_v1_alpha_0.25/conv_pw_7/Conv2D i1 [128, 1, 1, 128]
00000000: f5fe fab3 e701 1d64 b81d e01a fe10 31ff
00000010: e946 ca07 13c7 0af0 16ba cdfb 8100 afef
00000020: 13e3 2a12 fcc4 d603 3109 fb1e 140d cc33
00000030: 1b11 3107 c00b f603 eb16 e81d d4ff 3129
00000040: c7d3 3b40 f21b 0ae8 2a10 abe7 59dd 19d2
00000050: 63ee 190d 06ca 1064 2a09 f6f7 e2f3 ef13
00000060: e6e4 b71d 12d7 1bf7 d223 f0f6 fdd9 7ced
00000070: 1019 fb05 ef84 03eb 11fc 0a02 0b5b f23a
00000080: c32a 0e07 e9f0 d8f5 e510 e209 b024 0fed
00000090: e629 2911 0156 ed30 4031 1b01 1317 fd1a
000000a0: 7fd9 05db 88fc 0513 f3ce ccde 2ee0 c3ee
000000b0: decc f5dc 31f9 03ea c60b ebef 3eee 3cf2
000000c0: 1ae0 0125 8b09 f102 f617 0ecb d4a3 240f
000000d0: f70f 0b0b 0317 ea1d f51d f002 0209 bdd7
000000e0: 06ea d137 f91e 0005 03c7 e325 effb e3fc
000000f0: 130e ced7 04f9 ef04 1dfe c708 4df7 daed
-11 -2 -6 -77 -25 1 29 100
-72 29 -32 26 -2 16 49 -1
-23 70 -54 7 19 -57 10 -16
22 -70 -51 -5 -127 0 -81 -17
19 -29 42 18 -4 -60 -42 3
49 9 -5 30 20 13 -52 51
27 17 49 7 -64 11 -10 3
-21 22 -24 29 -44 -1 49 41
-57 -45 59 64 -14 27 10 -24
42 16 -85 -25 89 -35 25 -46
99 -18 25 13 6 -54 16 100
42 9 -10 -9 -30 -13 -17 19
-26 -28 -73 29 18 -41 27 -9
-46 35 -16 -10 -3 -39 124 -19
16 25 -5 5 -17 -124 3 -21
17 -4 10 2 11 91 -14 58
-61 42 14 7 -23 -16 -40 -11
-27 16 -30 9 -80 36 15 -19
-26 41 41 17 1 86 -19 48
64 49 27 1 19 23 -3 26
127 -39 5 -37 -120 -4 5 19
-13 -50 -52 -34 46 -32 -61 -18
-34 -52 -11 -36 49 -7 3 -22
-58 11 -21 -17 62 -18 60 -14
26 -32 1 37 -117 9 -15 2
-10 23 14 -53 -44 -93 36 15
-9 15 11 11 3 23 -22 29
-11 29 -16 2 2 9 -67 -41
6 -22 -47 55 -7 30 0 5
3 -57 -29 37 -17 -5 -29 -4
19 14 -50 -41 4 -7 -17 4
29 -2 -57 8 77 -9 -38 -19

mobilenet_v1_alpha_0.25/conv_dw_8_bn/FusedBatchNormV3;mobilenet_v1_alpha_0.25/conv_dw_8/depthwise;mobilenet_v1_alpha_0.25/conv_dw_12/depthwise i1 [1, 3, 3, 128]
00000000: e9fd c40b a352 1a8d d77f 0a02 86b9 3a19
00000010: 1128 fafc f018 02ab 1b15 682a 5e1e 0881
00000020: 40a3 97b8 277d 162f 7fea 6bc2 7ffe 97e6
00000030: df29 dcfe 8110 e03a ad13 819b 2eab d328
00000040: 13ed d01b ff08 87c6 e3ce 0428 3408 55ad
00000050: 141b efe8 cdd8 9d35 f7e7 3f1c d8b8 49ce
00000060: 01ae 1ac9 b281 2281 814d 8144 ad7f ea7f
00000070: 117f aa12 e689 5692 4e1e 32a8 81e1 02fc
00000080: eb36 337f cf7c 5fae dc36 ca60 814d 2632
00000090: 3950 c76d 88f9 7feb 784a 3aff 0c5e 10ac
000000a0: 7fea 8791 7f78 d83f 017f 71cd 3db4 d242
000000b0: da72 a87f d9c3 d67f c67f a3bc 337f 814a
000000c0: f87f aed7 062c cdd5 03bf 28fd 0828 7fdb
000000d0: 7f11 fb7f ee97 81c3 f43c 6b35 9cbc 24b0
000000e0: d2d1 2ac6 c4cd 41df 89f5 d1f0 0f26 8a57
000000f0: 5f37 44bc 2c81 7f25 0d72 3e58 bf82 ef96
-23 -3 -60 11 -93 82 26 -115
-41 127 10 2 -122 -71 58 25
17 40 -6 -4 -16 24 2 -85
27 21 104 42 94 30 8 -127
64 -93 -105 -72 39 125 22 47
127 -22 107 -62 127 -2 -105 -26
-33 41 -36 -2 -127 16 -32 58
-83 19 -127 -101 46 -85 -45 40
19 -19 -48 27 -1 8 -121 -58
-29 -50 4 40 52 8 85 -83
20 27 -17 -24 -51 -40 -99 53
-9 -25 63 28 -40 -72 73 -50
1 -82 26 -55 -78 -127 34 -127
-127 77 -127 68 -83 127 -22 127
17 127 -86 18 -26 -119 86 -110
78 30 50 -88 -127 -31 2 -4
-21 54 51 127 -49 124 95 -82
-36 54 -54 96 -127 77 38 50
57 80 -57 109 -120 -7 127 -21
120 74 58 -1 12 94 16 -84
127 -22 -121 -111 127 120 -40 63
1 127 113 -51 61 -76 -46 66
-38 114 -88 127 -39 -61 -42 127
-58 127 -93 -68 51 127 -127 74
-8 127 -82 -41 6 44 -51 -43
3 -65 40 -3 8 40 127 -37
127 17 -5 127 -18 -105 -127 -61
-12 60 107 53 -100 -68 36 -80
-46 -47 42 -58 -60 -51 65 -33
-119 -11 -47 -16 15 38 -118 87
95 55 68 -68 44 -127 127 37
13 114 62 88 -65 -126 -17 -106

mobilenet_v1_alpha_0.25/conv_pw_8/Conv2D i1 [128, 1, 1, 128]
00000000: c4db 1323 cff6 5443 00f7 fbff e706 0727
00000010: f4f9 1bd8 bde5 1f09 35dd f2ee af98 29e8
00000020: 1ba6 2e05 68ea 13fd 3e5c e8e3 f7e1 146a
00000030: f128 dbd9 d17e e6ed b90d 6315 eee0 b0f8
00000040: fdc2 f1f4 e21d f8e8 0cda f820 c6e0 48fa
00000050: fccd e22a 021a ba01 ffe2 ea3a fb21 e7ab
00000060: f31b 81ff f7e3 f704 d734 dd31 f1e9 19c5
00000070: 04e2 41f6 e534 05a3 1618 a5c2 2bc7 f227
00000080: c048 ee0b c7db 171a c7f4 4732 fe0c ed10
00000090: 0e03 ce0d 1811 e420 7ff6 f2f5 dde5 e900
000000a0: e504 ebb9 f7e6 e4e4 352e 2bde fd26 f63b
000000b0: 094a ee0a f0ea e502 af27 d103 030d fded
000000c0: 03d0 5417 1422 0ad8 44f4 c5ec eafc 01d2
000000d0: 18f9 4507 c80b 33f4 ff24 ead2 02f5 0ff0
000000e0: f8f5 0435 0ffe 1ef4 57fe c7db ef1f de0d
000000f0: 39fd e115 0b06 00e3 f547 66e2 3a51 e63c
-60 -37 19 35 -49 -10 84 67
0 -9 -5 -1 -25 6 7 39
-12 -7 27 -40 -67 -27 31 9
53 -35 -14 -18 -81 -104 41 -24
27 -90 46 5 104 -22 19 -3
62 92 -24 -29 -9 -31 20 106
-15 40 -37 -39 -47 126 -26 -19
-71 13 99 21 -18 -32 -80 -8
-3 -62 -15 -12 -30 29 -8 -24
12 -38 -8 32 -58 -32 72 -6
-4 -51 -30 42 2 26 -70 1
-1 -30 -22 58 -5 33 -25 -85
-13 27 -127 -1 -9 -29 -9 4
-41 52 -35 49 -15 -23 25 -59
4 -30 65 -10 -27 52 5 -93
22 24 -91 -62 43 -57 -14 39
-64 72 -18 11 -57 -37 23 26
-57 -12 71 50 -2 12 -19 16
14 3 -50 13 24 17 -28 32
127 -10 -14 -11 -35 -27 -23 0
-27 4 -21 -71 -9 -26 -28 -28
53 46 43 -34 -3 38 -10 59
9 74 -18 10 -16 -22 -27 2
-81 39 -47 3 3 13 -3 -19
3 -48 84 23 20 34 10 -40
68 -12 -59 -20 -22 -4 1 -46
24 -7 69 7 -56 11 51 -12
-1 36 -22 -46 2 -11 15 -16
-8 -11 4 53 15 -2 30 -12
87 -2 -57 -37 -17 31 -34 13
57 -3 -31 21 11 6 0 -29
-11 71 102 -30 58 81 -26 60

mobilenet_v1_alpha_0.25/conv_dw_9_bn/FusedBatchNormV3;mobilenet_v1_alpha_0.25/conv_dw_9/depthwise;mobilenet_v1_alpha_0.25/conv_dw_12/depthwise i1 [1, 3, 3, 128]
00000000: 7fd5 9797 817f 0d93 6e81 8105 36b3 7012
00000010: 8105 167f a767 e3f7 b5e1 8107 fc3c 2fe3
00000020: 6b81 3c36 0e2f 247f aa96 1cfa cd90 7fcc
00000030: c57f db56 e45a e9a6 a316 9581 44bf af02
00000040: acb2 6e5d b31a ba36 8fca 87cf a0f2 da42
00000050: ecbe 7fcc 2006 a8ee 8107 fa7f ee94 6d63
00000060: 4d54 f2e1 94f5 d181 86b0 fd14 22aa c781
00000070: 5077 a8b0 6581 9c92 47de a83a 9167 8928
00000080: 60bc e4f9 f542 7fae 7fa5 da38 e6d2 eb35
00000090: a741 ef43 4b11 4958 18c6 c830 bd4b 0d29
000000a0: 7fb7 7feb c062 aa24 b4e6 2181 4dd4 eaf8
000000b0: 81f3 0d49 ad39 3dd8 8139 c310 3981 2b4b
000000c0: c9ce 551e 3f1c 9b79 09ce 87fe b1e9 716e
000000d0: 35aa 5dda e060 9b5a b400 151f e594 6d43
000000e0: ff56 131c cbed a908 c0e9 c539 09bf 298e
000000f0: 3a5a 9000 66fc bcb3 0fb5 b00c 1408 db7f
127 -43 -105 -105 -127 127 13 -109
110 -127 -127 5 54 -77 112 18
-127 5 22 127 -89 103 -29 -9
-75 -31 -127 7 -4 60 47 -29
107 -127 60 54 14 47 36 127
-86 -106 28 -6 -51 -112 127 -52
-59 127 -37 86 -28 90 -23 -90
-93 22 -107 -127 68 -65 -81 2
-84 -78 110 93 -77 26 -70 54
-113 -54 -121 -49 -96 -14 -38 66
-20 -66 127 -52 32 6 -88 -18
-127 7 -6 127 -18 -108 109 99
77 84 -14 -31 -108 -11 -47 -127
-122 -80 -3 20 34 -86 -57 -127
80 119 -88 -80 101 -127 -100 -110
71 -34 -88 58 -111 103 -119 40
96 -68 -28 -7 -11 66 127 -82
127 -91 -38 56 -26 -46 -21 53
-89 65 -17 67 75 17 73 88
24 -58 -56 48 -67 75 13 41
127 -73 127 -21 -64 98 -86 36
-76 -26 33 -127 77 -44 -22 -8
-127 -13 13 73 -83 57 61 -40
-127 57 -61 16 57 -127 43 75
-55 -50 85 30 63 28 -101 121
9 -50 -121 -2 -79 -23 113 110
53 -86 93 -38 -32 96 -101 90
-76 0 21 31 -27 -108 109 67
-1 86 19 28 -53 -19 -87 8
-64 -23 -59 57 9 -65 41 -114
58 90 -112 0 102 -4 -68 -77
15 -75 -80 12 20 8 -37 127

mobilenet_v1_alpha_0.25/conv_pw_9/Conv2D i1 [128, 1, 1, 128]
00000000: eb1d fef2 2012 1a07 7ffb 0c14 ffde c6aa
00000010: 0809 0527 e5fe b0f3 02e0 162d f70f 07f3
00000020: fbef 22cb ee55 14e7 07f4 da03 ea0b fc0f
00000030: 0414 f9e2 ea2d 0bfa 04ee 0ded 881f b6d1
00000040: 1bcc 0b27 1bfd 1a2d 1719 de0f fb08 33eb
00000050: 1800 bcf0 fdcc b602 184f d42d f0ff f7b2
00000060: 1322 fbf3 31e0 f40d fbf2 e3fb 404b a0ea
00000070: 2335 1017 1b0d dced ff42 0cfd f6e3 00fd
00000080: ac1c 01bf 3eb8 ce27 0462 50e4 3d32 d830
00000090: 20f0 b11c f7d7 c016 0b18 daea 1d10 0ee2
000000a0: 0241 052c e515 2232 fd3f f209 f430 1ae4
000000b0: c6d4 e50b 2adf 4629 12b5 5053 ed5f e23c
000000c0: 2c1b 37ef 4018 00ef 1238 7fb6 28eb 52d3
000000d0: 1aad b6ff c53f d447 f8a2 fc0f cc35 24d2
000000e0: ef31 f3e3 f3f5 f703 63ff f638 031b 0249
000000f0: b7eb f523 2237 deeb 2cd6 d834 1cec 0027
-21 29 -2 -14 32 18 26 7
127 -5 12 20 -1 -34 -58 -86
8 9 5 39 -27 -2 -80 -13
2 -32 22 45 -9 15 7 -13
-5 -17 34 -53 -18 85 20 -25
7 -12 -38 3 -22 11 -4 15
4 20 -7 -30 -22 45 11 -6
4 -18 13 -19 -120 31 -74 -47
27 -52 11 39 27 -3 26 45
23 25 -34 15 -5 8 51 -21
24 0 -68 -16 -3 -52 -74 2
24 79 -44 45 -16 -1 -9 -78
19 34 -5 -13 49 -32 -12 13
-5 -14 -29 -5 64 75 -96 -22
35 53 16 23 27 13 -36 -19
-1 66 12 -3 -10 -29 0 -3
-84 28 1 -65 62 -72 -50 39
4 98 80 -28 61 50 -40 48
32 -16 -79 28 -9 -41 -64 22
11 24 -38 -22 29 16 14 -30
2 65 5 44 -27 21 34 50
-3 63 -14 9 -12 48 26 -28
-58 -44 -27 11 42 -33 70 41
18 -75 80 83 -19 95 -30 60
44 27 55 -17 64 24 0 -17
18 56 127 -74 40 -21 82 -45
26 -83 -74 -1 -59 63 -44 71
-8 -94 -4 15 -52 53 36 -46
-17 49 -13 -29 -13 -11 -9 3
99 -1 -10 56 3 27 2 73
-73 -21 -11 35 34 55 -34 -21
44 -42 -40 52 28 -20 0 39

mobilenet_v1_alpha_0.25/conv_dw_10_bn/FusedBatchNormV3;mobilenet_v1_alpha_0.25/conv_dw_10/depthwise;mobilenet_v1_alpha_0.25/conv_dw_12/depthwise i1 [1, 3, 3, 128]
00000000: 710d f0d1 4bec e907 eabc 8104 fbe5 7fe7
00000010: d8f1 c9fc 24be 9da0 81c5 41c0 8199 29d9
00000020: 47fc f700 3393 f9d0 ea81 5b81 17bd 8fe7
00000030: 81a9 24bb f7f1 c281 e17f a0d5 26c5 4404
00000040: 0ac9 1821 080a 7f81 8dbb ed26 cf6a 85d0
00000050: 05e9 abe0 9448 cc8c bd31 feec a3ea f132
00000060: f2da 0581 6f81 ef4c b949 bc6f b6f5 c6df
00000070: cdd5 d581 9d03 91c8 d5a8 d7e2 75dd 4e45
00000080: 5fd8 3dd4 dd3c d8f4 cddc f636 eedc 5f21
00000090: eaca e594 5ebd cb9e eeb8 45a1 45d0 271d
000000a0: 41c5 cbfa 49c6 f0de b2ef 7ffc 292e 8198
000000b0: f281 29e3 7ffd 9cda 4570 09a9 20a0 5862
000000c0: 5bc4 6e31 7425 5abc bef7 883a f462 eed5
000000d0: 70dc ea92 aa07 d692 a861 b13c 90b8 127f
000000e0: c8fb 6065 7f49 3a3d 1b0b b0cc a0f0 c2f9
000000f0: f171 4df7 ae01 6723 afc8 bac0 66e4 7f7f
113 13 -16 -47 75 -20 -23 7
-22 -68 -127 4 -5 -27 127 -25
-40 -15 -55 -4 36 -66 -99 -96
-127 -59 65 -64 -127 -103 41 -39
71 -4 -9 0 51 -109 -7 -48
-22 -127 91 -127 23 -67 -113 -25
-127 -87 36 -69 -9 -15 -62 -127
-31 127 -96 -43 38 -59 68 4
10 -55 24 33 8 10 127 -127
-115 -69 -19 38 -49 106 -123 -48
5 -23 -85 -32 -108 72 -52 -116
-67 49 -2 -20 -93 -22 -15 50
-14 -38 5 -127 111 -127 -17 76
-71 73 -68 111 -74 -11 -58 -33
-51 -43 -43 -127 -99 3 -111 -56
-43 -88 -41 -30 117 -35 78 69
95 -40 61 -44 -35 60 -40 -12
-51 -36 -10 54 -18 -36 95 33
-22 -54 -27 -108 94 -67 -53 -98
-18 -72 69 -95 69 -48 39 29
65 -59 -53 -6 73 -58 -16 -34
-78 -17 127 -4 41 46 -127 -104
-14 -127 41 -29 127 -3 -100 -38
69 112 9 -87 32 -96 88 98
91 -60 110 49 116 37 90 -68
-66 -9 -120 58 -12 98 -18 -43
112 -36 -22 -110 -86 7 -42 -110
-88 97 -79 60 -112 -72 18 127
-56 -5 96 101 127 73 58 61
27 11 -80 -52 -96 -16 -62 -7
-15 113 77 -9 -82 1 103 35
-81 -56 -70 -64 102 -28 127 127

mobilenet_v1_alpha_0.25/conv_pw_10/Conv2D i1 [128, 1, 1, 128]
00000000: 1cf3 ecfd 2b9e 03df cab9 359b b760 ecbe
00000010: ed72 1a04 cca8 ddca fd9e 3d10 f200 3401
00000020: 4804 2a1f e2e7 efd3 e2dd c4e8 cd2e d2e3
00000030: 26d2 10fc e8c5 ed86 0ab6 1f2e e6e8 1408
00000040: 81d8 e81f 0ad6 68ef 0423 f442 d717 e9f4
00000050: 06ee e960 ac6a 11e5 4da0 92cc 21dc f90e
00000060: e59c 02ec 680c d0fb 0215 ee00 000d e902
00000070: dfb7 ee0f f52f dfc0 d023 f112 3754 e817
00000080: fbf5 0ed6 14ec b905 1f31 f608 230a 0921
00000090: 17fb 1afe e51e 23ce e61a fb32 b70a f6fa
000000a0: e10b fbfd 7fe3 1039 e61b fbe1 2bff 05e8
000000b0: 1801 041c f61d d218 e4bf f0bd 1a2c 4407
000000c0: 0312 3232 f9d2 a7f7 92eb f6e4 250e 0e29
000000d0: 61ef 2228 210e e712 f3f5 de27 ebfd 2a18
000000e0: 920d 71f8 d20b 2017 0adb 11fa 153f d1dd
000000f0: 0ef9 32d5 2ece fc24 1b0e 1916 e3ef ebee
28 -13 -20 -3 43 -98 3 -33
-54 -71 53 -101 -73 96 -20 -66
-19 114 26 4 -52 -88 -35 -54
-3 -98 61 16 -14 0 52 1
72 4 42 31 -30 -25 -17 -45
-30 -35 -60 -24 -51 46 -46 -29
38 -46 16 -4 -24 -59 -19 -122
10 -74 31 46 -26 -24 20 8
-127 -40 -24 31 10 -42 104 -17
4 35 -12 66 -41 23 -23 -12
6 -18 -23 96 -84 106 17 -27
77 -96 -110 -52 33 -36 -7 14
-27 -100 2 -20 104 12 -48 -5
2 21 -18 0 0 13 -23 2
-33 -73 -18 15 -11 47 -33 -64
-48 35 -15 18 55 84 -24 23
-5 -11 14 -42 20 -20 -71 5
31 49 -10 8 35 10 9 33
23 -5 26 -2 -27 30 35 -50
-26 26 -5 50 -73 10 -10 -6
-31 11 -5 -3 127 -29 16 57
-26 27 -5 -31 43 -1 5 -24
24 1 4 28 -10 29 -46 24
-28 -65 -16 -67 26 44 68 7
3 18 50 50 -7 -46 -89 -9
-110 -21 -10 -28 37 14 14 41
97 -17 34 40 33 14 -25 18
-13 -11 -34 39 -21 -3 42 24
-110 13 113 -8 -46 11 32 23
10 -37 17 -6 21 63 -47 -35
14 -7 50 -43 46 -50 -4 36
27 14 25 22 -29 -17 -21 -18

mobilenet_v1_alpha_0.25/conv_dw_11_bn/FusedBatchNormV3;mobilenet_v1_alpha_0.25/conv_dw_11/depthwise;mobilenet_v1_alpha_0.25/conv_dw_12/depthwise i1 [1, 3, 3, 128]
00000000: ae06 a37f c928 2255 39b9 0d43 4bd4 8a85
00000010: 7f4e 7f51 0dd2 7f7f 0f4d 1c7f 5af0 a8ed
00000020: 71fc dfa0 123e 7fa1 8181 d5e0 3ce9 3a7f
00000030: cdfb 7fff 810d cb13 2187 81e4 25af 03df
00000040: 30e4 8112 df04 e1c2 151f f0ff f1e0 8105
00000050: 7feb 089c 48a4 d869 a789 848d 0081 09fb
00000060: c2c0 02d2 daa1 c5f3 2d1b d3f6 cdf6 dcb9
00000070: 0e04 247f 7ff4 b68e f5ac 3f0a 06c6 8830
00000080: 87d2 c66d 2356 4e38 24c0 510f 65a4 e582
00000090: eeec 517f 3db8 75e3 09d2 8118 7f7f 950f
000000a0: 56e4 aa81 df45 1a93 0197 962a 32d3 5069
000000b0: c67c 4a7f 767f 987f 2481 bfe7 65b4 c554
000000c0: 1422 8edf 9641 d87f 7d50 00fd 7ff7 f648
000000d0: 4182 7f9e 7ff2 c6f5 5581 e391 02ed 1ce2
000000e0: fe81 7f9d e981 c59e 7f81 8f10 2bf6 a5c2
000000f0: 1a82 0231 4336 8194 cd7f 7f49 fc8b bd04
-82 6 -93 127 -55 40 34 85
57 -71 13 67 75 -44 -118 -123
127 78 127 81 13 -46 127 127
15 77 28 127 90 -16 -88 -19
113 -4 -33 -96 18 62 127 -95
-127 -127 -43 -32 60 -23 58 127
-51 -5 127 -1 -127 13 -53 19
33 -121 -127 -28 37 -81 3 -33
48 -28 -127 18 -33 4 -31 -62
21 31 -16 -1 -15 -32 -127 5
127 -21 8 -100 72 -92 -40 105
-89 -119 -124 -115 0 -127 9 -5
-62 -64 2 -46 -38 -95 -59 -13
45 27 -45 -10 -51 -10 -36 -71
14 4 36 127 127 -12 -74 -114
-11 -84 63 10 6 -58 -120 48
-121 -46 -58 109 35 86 78 56
36 -64 81 15 101 -92 -27 -126
-18 -20 81 127 61 -72 117 -29
9 -46 -127 24 127 127 -107 15
86 -28 -86 -127 -33 69 26 -109
1 -105 -106 42 50 -45 80 105
-58 124 74 127 118 127 -104 127
36 -127 -65 -25 101 -76 -59 84
20 34 -114 -33 -106 65 -40 127
125 80 0 -3 127 -9 -10 72
65 -126 127 -98 127 -14 -58 -11
85 -127 -29 -111 2 -19 28 -30
-2 -127 127 -99 -23 -127 -59 -98
127 -127 -113 16 43 -10 -91 -62
26 -126 2 49 67 54 -127 -108
-51 127 127 73 -4 -117 -67 4

mobilenet_v1_alpha_0.25/conv_pw_11/Conv2D i1 [128, 1, 1, 128]
00000000: f5d8 11f7 f710 1d1a 0e24 edfb d6f2 08f4
00000010: ffe9 1bf1 07f0 f2f5 010c 0101 0515 0e09
00000020: 15e1 0bf5 0b0d 0a0f f2fa f85d f802 00fc
00000030: fcf2 03d6 0b08 f91e fe0a 06f4 7fcf f901
00000040: 220e ecf6 0b23 f2f1 0a2f e6fb f6d4 1cff
00000050: fef7 f8fa 0a10 e507 f6e4 0b07 07d7 3cf4
00000060: 040b fc14 2ee7 ebee f60d fd07 2ad1 eb02
00000070: 6bff fded effa 0dec 01e9 ddf4 1eea 02de
00000080: 1d03 18e6 29c7 1503 c222 dbf3 eef5 0d11
00000090: 164d 0500 f2f6 1ff9 3acd ed18 fb21 0afa
000000a0: 087f f428 1223 070a fff7 0cf6 ad21 3b0b
000000b0: fb11 0b17 1901 dae7 f2cc 0302 24f3 21dd
000000c0: f3fd f20a 04d2 fa01 f60c f0eb 030d fe21
000000d0: daf4 340b 08f9 e415 1101 fe0a 2610 ea1b
000000e0: 180a 182d 35fa 4c12 ff06 1b5f ef10 1200
000000f0: d3e6 f0fa 157e 0405 111b eac1 fc24 d3fe
-11 -40 17 -9 -9 16 29 26
14 36 -19 -5 -42 -14 8 -12
-1 -23 27 -15 7 -16 -14 -11
1 12 1 1 5 21 14 9
21 -31 11 -11 11 13 10 15
-14 -6 -8 93 -8 2 0 -4
-4 -14 3 -42 11 8 -7 30
-2 10 6 -12 127 -49 -7 1
34 14 -20 -10 11 35 -14 -15
10 47 -26 -5 -10 -44 28 -1
-2 -9 -8 -6 10 16 -27 7
-10 -28 11 7 7 -41 60 -12
4 11 -4 20 46 -25 -21 -18
-10 13 -3 7 42 -47 -21 2
107 -1 -3 -19 -17 -6 13 -20
1 -23 -35 -12 30 -22 2 -34
29 3 24 -26 41 -57 21 3
-62 34 -37 -13 -18 -11 13 17
22 77 5 0 -14 -10 31 -7
58 -51 -19 24 -5 33 10 -6
8 127 -12 40 18 35 7 10
-1 -9 12 -10 -83 33 59 11
-5 17 11 23 25 1 -38 -25
-14 -52 3 2 36 -13 33 -35
-13 -3 -14 10 4 -46 -6 1
-10 12 -16 -21 3 13 -2 33
-38 -12 52 11 8 -7 -28 21
17 1 -2 10 38 16 -22 27
24 10 24 45 53 -6 76 18
-1 6 27 95 -17 16 18 0
-45 -26 -16 -6 21 126 4 5
17 27 -22 -63 -4 36 -45 -2

mobilenet_v1_alpha_0.25/conv_dw_12_bn/FusedBatchNormV3;mobilenet_v1_alpha_0.25/conv_dw_12/depthwise i1 [1, 3, 3, 128]
00000000: 190d 090e 81e4 a97f 2b79 32f7 79e9 7f81
00000010: a5ab 812a 297f 24cb 5f0a 18bf 5d81 dee1
00000020: eddd 1381 dbc1 bb05 bcd2 867f 7fce bb55
00000030: 9681 be79 093f 30b4 9c02 7445 ce97 d3c8
00000040: f3ac 537f 810b c5ce fcfb ee2e 4c81 7554
00000050: 3c2b 1281 d681 8139 fb6d e5dc 06e7 3bad
00000060: 83b7 f042 07c1 1901 4d1e 07fa 1c0b 7ff4
00000070: fe7f 7ffa f9f6 5614 7f18 4b81 4caf da72
00000080: 3451 3745 c0ed 9833 7f5f 7f4d 12b8 1d35
00000090: a506 b448 555a f0aa 3c71 3ab8 03c6 e41d
000000a0: 47e7 7fad 817f f6f2 bf81 812b 2ee2 fd49
000000b0: 81e4 4e36 7f7f d91b 8e07 7f48 f9b3 ebf9
000000c0: efd4 2b4a bff7 d321 19ff 7ffb 722b 7f3c
000000d0: 422c d8ca d8bd d9fc 7f56 d2ab 3af7 7fe6
000000e0: bbdf 3f18 b1da 5f46 2162 cee1 5981 f8da
000000f0: d358 56bc a99d 3b5e 7dcd 7fe3 7fc4 817f
25 13 9 14 -127 -28 -87 127
43 121 50 -9 121 -23 127 -127
-91 -85 -127 42 41 127 36 -53
95 10 24 -65 93 -127 -34 -31
-19 -35 19 -127 -37 -63 -69 5
-68 -46 -122 127 127 -50 -69 85
-106 -127 -66 121 9 63 48 -76
-100 2 116 69 -50 -105 -45 -56
-13 -84 83 127 -127 11 -59 -50
-4 -5 -18 46 76 -127 117 84
60 43 18 -127 -42 -127 -127 57
-5 109 -27 -36 6 -25 59 -83
-125 -73 -16 66 7 -63 25 1
77 30 7 -6 28 11 127 -12
-2 127 127 -6 -7 -10 86 20
127 24 75 -127 76 -81 -38 114
52 81 55 69 -64 -19 -104 51
127 95 127 77 18 -72 29 53
-91 6 -76 72 85 90 -16 -86
60 113 58 -72 3 -58 -28 29
71 -25 127 -83 -127 127 -10 -14
-65 -127 -127 43 46 -30 -3 73
-127 -28 78 54 127 127 -39 27
-114 7 127 72 -7 -77 -21 -7
-17 -44 43 74 -65 -9 -45 33
25 -1 127 -5 114 43 127 60
66 44 -40 -54 -40 -67 -39 -4
127 86 -46 -85 58 -9 127 -26
-69 -33 63 24 -79 -38 95 70
33 98 -50 -31 89 -127 -8 -38
-45 88 86 -68 -87 -99 59 94
125 -51 127 -29 127 -60 -127 127

mobilenet_v1_alpha_0.25/conv_pw_12/Conv2D i1 [256, 1, 1, 128]
00000000: cddd f2c7 3fd0 0cd5 e9e4 fcc2 d307 dc1c
00000010: db34 2b16 ed11 f8e3 db05 f2d7 1453 08fb
00000020: 14e9 e8ec 37e5 0e14 0c3f c135 0023 f4d0
00000030: 40bb 031e ff65 070a 2029 2ae6 0803 02f2
00000040: 1afd 0a0d d53d b2df 81f6 b22e cb2f 1ebf
00000050: 0ebb 03ee eefc 28e3 01ca 034b ca3f d9f4
00000060: 4f2e bdae fc0f aaeb 5c1b 2c35 cf27 9fe8
00000070: 07c1 c1e0 e706 d89e d316 03f2 4105 2633
00000080: edd2 0a03 fdd7 0fdc 0010 1bf7 c301 e90c
00000090: e50b e10d 261d f3f4 d61d da00 1b12 fef2
000000a0: 0fc7 0808 f4fc fc06 fb19 0017 e3fe f526
000000b0: ee03 0225 db19 0403 dce8 16e1 f2ef fce9
000000c0: ff0d 0536 f425 fde1 1001 dd08 0606 28c6
000000d0: 240a 1315 f40d ff06 0be0 23f3 25fd 0e24
000000e0: 0f31 dbde 2218 ebee 1eeb f437 c1fe ff09
000000f0: f8e3 d9ff ecf4 cee4 d605 7fff 2f04 0714
-51 -35 -14 -57 63 -48 12 -43
-23 -28 -4 -62 -45 7 -36 28
-37 52 43 22 -19 17 -8 -29
-37 5 -14 -41 20 83 8 -5
20 -23 -24 -20 55 -27 14 20
12 63 -63 53 0 35 -12 -48
64 -69 3 30 -1 101 7 10
32 41 42 -26 8 3 2 -14
26 -3 10 13 -43 61 -78 -33
-127 -10 -78 46 -53 47 30 -65
14 -69 3 -18 -18 -4 40 -29
1 -54 3 75 -54 63 -39 -12
79 46 -67 -82 -4 15 -86 -21
92 27 44 53 -49 39 -97 -24
7 -63 -63 -32 -25 6 -40 -98
-45 22 3 -14 65 5 38 51
-19 -46 10 3 -3 -41 15 -36
0 16 27 -9 -61 1 -23 12
-27 11 -31 13 38 29 -13 -12
-42 29 -38 0 27 18 -2 -14
15 -57 8 8 -12 -4 -4 6
-5 25 0 23 -29 -2 -11 38
-18 3 2 37 -37 25 4 3
-36 -24 22 -31 -14 -17 -4 -23
-1 13 5 54 -12 37 -3 -31
16 1 -35 8 6 6 40 -58
36 10 19 21 -12 13 -1 6
11 -32 35 -13 37 -3 14 36
15 49 -37 -34 34 24 -21 -18
30 -21 -12 55 -63 -2 -1 9
-8 -29 -39 -1 -20 -12 -50 -28
-42 5 127 -1 47 4 7 20

mobilenet_v1_alpha_0.25/conv_dw_13_bn/FusedBatchNormV3;mobilenet_v1_alpha_0.25/conv_dw_13/depthwise;mobilenet_v1_alpha_0.25/conv_pw_13/Conv2D i1 [1, 3, 3, 256]
00000000: a881 f27f c7f7 a303 7ff2 151f b97a ccd6
00000010: fa05 0515 a9e6 b566 a4c1 c835 ed95 81ad
00000020: a4ee f8e0 d833 7feb 0bae d1fc 81d0 ecdc
00000030: fb32 bf7f 02e6 bc65 bccf eadc 96b7 815c
00000040: ca49 7dbd 3fbb 2ff1 e5cb 322f ebe9 afd0
00000050: e6df 7f11 c7c6 6383 2008 b1dc dc00 cae7
00000060: 8c13 a27f 8f58 f381 edc4 d29c 9f11 cf81
00000070: bea2 ea4a 03d7 f006 81a7 b6d7 eed8 b6d5
00000080: e07f 9527 c8e9 3c46 d1fe e88a 39c1 e3d3
00000090: ded4 d9f1 90a4 43f1 d85b 817f c8cd ddfb
000000a0: 13a0 9d99 abb8 ed1b cae6 df7f d627 5db5
000000b0: e381 ee81 c481 a8ad 8f05 695b bff5 cd81
000000c0: 81b4 a3e3 ec7f af09 05a1 817f 9adc d681
000000d0: d1a1 9a31 a2d2 02dd f812 1981 ba29 8154
000000e0: efaf 81cc ad56 ba7f fdcc 81b7 5d19 38f5
000000f0: 9abf f5c3 bb18 81f1 8fdd 28fc c66f cb81
-88 -127 -14 127 -57 -9 -93 3
127 -14 21 31 -71 122 -52 -42
-6 5 5 21 -87 -26 -75 102
-92 -63 -56 53 -19 -107 -127 -83
-92 -18 -8 -32 -40 51 127 -21
11 -82 -47 -4 -127 -48 -20 -36
-5 50 -65 127 2 -26 -68 101
-68 -49 -22 -36 -106 -73 -127 92
-54 73 125 -67 63 -69 47 -15
-27 -53 50 47 -21 -23 -81 -48
-26 -33 127 17 -57 -58 99 -125
32 8 -79 -36 -36 0 -54 -25
-116 19 -94 127 -113 88 -13 -127
-19 -60 -46 -100 -97 17 -49 -127
-66 -94 -22 74 3 -41 -16 6
-127 -89 -74 -41 -18 -40 -74 -43
-32 127 -107 39 -56 -23 60 70
-47 -2 -24 -118 57 -63 -29 -45
-34 -44 -39 -15 -112 -92 67 -15
-40 91 -127 127 -56 -51 -35 -5
19 -96 -99 -103 -85 -72 -19 27
-54 -26 -33 127 -42 39 93 -75
-29 -127 -18 -127 -60 -127 -88 -83
-113 5 105 91 -65 -11 -51 -127
-127 -76 -93 -29 -20 127 -81 9
5 -95 -127 127 -102 -36 -42 -127
-47 -95 -102 49 -94 -46 2 -35
-8 18 25 -127 -70 41 -127 84
-17 -81 -127 -52 -83 86 -70 127
-3 -52 -127 -73 93 25 56 -11
-102 -65 -11 -61 -69 24 -127 -15
-113 -35 40 -4 -58 111 -53 -127

mobilenet_v1_alpha_0.25/conv_pw_13/Conv2D i1 [256, 1, 1, 256]
00000000: 0410 fc00 0b0f f3d8 e01d f5f9 0403 f4ee
00000010: f3f6 eb00 eca2 4302 eef3 4106 fbec f022
00000020: 03fd e90f 0922 d80b 00f5 eaee de09 fe01
00000030: fa0c e905 06f1 0008 ebf0 e301 faf4 f14f
00000040: e23a 04ed 11f5 0ef1 06f3 fdff c8f4 f7da
00000050: e10c 02fc 1f02 600c 10fc 0e06 07fd 2cfb
00000060: e6fa 2bd7 ce34 d7c0 eeea e511 261b 0204
00000070: 1af5 f66c fd00 05fa e9fa f520 e9ef ee02
00000080: f40e 03e0 ff03 190d d70d 02f5 03ea 24f2
00000090: fd04 00f1 08f9 f408 ec1f 01f6 ff0b fee7
000000a0: 0100 f6ef e701 fbeb f1ff f200 f8f4 15e7
000000b0: 1aef 0c0a f947 04fe d204 eace 0226 0ee6
000000c0: 07e6 10f2 e108 db1e 10d4 f87f e2f8 06ec
000000d0: dfd9 fe06 d90a 0ff7 e405 00ef f8dd fa02
000000e0: 16fe ef04 ffef f7d3 e4e5 0ddd 1d0a d70a
000000f0: f80e 00f5 0720 c7f1 ede7 2ad5 0af4 1042
4 16 -4 0 11 15 -13 -40
-32 29 -11 -7 4 3 -12 -18
-13 -10 -21 0 -20 -94 67 2
-18 -13 65 6 -5 -20 -16 34
3 -3 -23 15 9 34 -40 11
0 -11 -22 -18 -34 9 -2 1
-6 12 -23 5 6 -15 0 8
-21 -16 -29 1 -6 -12 -15 79
-30 58 4 -19 17 -11 14 -15
6 -13 -3 -1 -56 -12 -9 -38
-31 12 2 -4 31 2 96 12
16 -4 14 6 7 -3 44 -5
-26 -6 43 -41 -50 52 -41 -64
-18 -22 -27 17 38 27 2 4
26 -11 -10 108 -3 0 5 -6
-23 -6 -11 32 -23 -17 -18 2
-12 14 3 -32 -1 3 25 13
-41 13 2 -11 3 -22 36 -14
-3 4 0 -15 8 -7 -12 8
-20 31 1 -10 -1 11 -2 -25
1 0 -10 -17 -25 1 -5 -21
-15 -1 -14 0 -8 -12 21 -25
26 -17 12 10 -7 71 4 -2
-46 4 -22 -50 2 38 14 -26
7 -26 16 -14 -31 8 -37 30
16 -44 -8 127 -30 -8 6 -20
-33 -39 -2 6 -39 10 15 -9
-28 5 0 -17 -8 -35 -6 2
22 -2 -17 4 -1 -17 -9 -45
-28 -27 13 -35 29 10 -41 10
-8 14 0 -11 7 32 -57 -15
-19 -25 42 -43 10 -12 16 66

mobilenet_v1_alpha_0.25/dense/MatMul i1 [5, 256] scale=0.012341845 zero_point=0
00000000: 1bf1 fc18 f3f0 f1dd 01f8 def6 e0b4 d40c
00000010: 02ff f817 fc1b 001e e604 1a1b bceb c1eb
00000020: aaf7 1aff d7e8 fff4 d4f2 e904 13fb 161a
00000030: 1914 f6c8 e5ba 0a09 fc01 0c23 0af1 000c
00000040: 03cf 030d e817 f61c 1b05 07c2 0316 02cb
00000050: 051e f81c ca01 eefe 001a 0108 fcee d002
00000060: 05ed f4fb 0908 96f6 ee19 dfe5 f315 0905
00000070: dee6 0bfe 1b0a eaf4 2109 0001 ffff d5db
00000080: 01d6 fff9 fce6 11fb 00d3 f9fd 0ff0 01fb
00000090: fedc ec04 f81e befe 0ff6 faa8 b11a fbfa
000000a0: fa00 07e9 111c e908 1a21 d805 150c 1b09
000000b0: cef8 fa02 f8ce f6ae 0216 fb0a 05ce 1507
000000c0: 1503 ded4 f0ff d7fd d212 f9fb d5d1 1807
000000d0: 17f0 05ff 0001 f3c7 f1fa defd f81d ccf5
000000e0: 16de 1b01 faf6 dc00 e4f5 0804 dfbc fef4
000000f0: fc01 1fee c110 cef2 f7f9 f2fb e7c3 20f9
0.3332298 -0.18512768 -0.04936738 0.29620427 -0.16044398 -0.19746952 -0.18512768 -0.43196458
0.012341845 -0.09873476 -0.41962272 -0.12341845 -0.39493904 -0.93798023 -0.54304117 0.14810213
0.02468369 -0.012341845 -0.09873476 0.28386244 -0.04936738 0.3332298 0.0 0.37025535
-0.32088795 0.04936738 0.32088795 0.3332298 -0.83924544 -0.25917873 -0.7775362 -0.25917873
-1.0613986 -0.1110766 0.32088795 -0.012341845 -0.50601566 -0.29620427 -0.012341845 -0.14810213
-0.54304117 -0.17278583 -0.28386244 0.04936738 0.23449506 -0.061709225 0.27152058 0.32088795
0.30854613 0.2468369 -0.12341845 -0.69114333 -0.3332298 -0.86392915 0.12341845 0.1110766
-0.04936738 0.012341845 0.14810213 0.43196458 0.12341845 -0.18512768 0.0 0.14810213
0.037025534 -0.6047504 0.037025534 0.16044398 -0.29620427 0.28386244 -0.12341845 0.34557167
0.3332298 0.061709225 0.08639292 -0.76519436 0.037025534 0.27152058 0.02468369 -0.65411776
0.061709225 0.37025535 -0.09873476 0.34557167 -0.6664596 0.012341845 -0.2221532 -0.02468369
0.0 0.32088795 0.012341845 0.09873476 -0.04936738 -0.2221532 -0.59240854 0.02468369
0.061709225 -0.23449506 -0.14810213 -0.061709225 0.1110766 0.09873476 -1.3082355 -0.12341845
-0.2221532 0.30854613 -0.4072809 -0.3332298 -0.16044398 0.25917873 0.1110766 0.061709225
-0.41962272 -0.32088795 0.13576029 -0.02468369 0.3332298 0.12341845 -0.27152058 -0.14810213
0.4072809 0.1110766 0.0 0.012341845 -0.012341845 -0.012341845 -0.5306993 -0.45664826
0.012341845 -0.51835746 -0.012341845 -0.08639292 -0.04936738 -0.32088795 0.20981136 -0.061709225
0.0 -0.555383 -0.08639292 -0.037025534 0.18512768 -0.19746952 0.012341845 -0.061709225
-0.02468369 -0.4443064 -0.2468369 0.04936738 -0.09873476 0.37025535 -0.8145618 -0.02468369
0.18512768 -0.12341845 -0.07405107 -1.0860823 -0.97500575 0.32088795 -0.061709225 -0.07405107
-0.07405107 0.0 0.08639292 -0.28386244 0.20981136 0.34557167 -0.28386244 0.09873476
0.32088795 0.4072809 -0.4936738 0.061709225 0.25917873 0.14810213 0.3332298 0.1110766
-0.61709225 -0.09873476 -0.07405107 0.02468369 -0.09873476 -0.61709225 -0.12341845 -1.0120313
0.02468369 0.27152058 -0.061709225 0.12341845 0.061709225 -0.61709225 0.25917873 0.08639292
0.25917873 0.037025534 -0.41962272 -0.54304117 -0.19746952 -0.012341845 -0.50601566 -0.037025534
-0.5677249 0.2221532 -0.08639292 -0.061709225 -0.5306993 -0.5800667 0.29620427 0.08639292
0.28386244 -0.19746952 0.061709225 -0.012341845 0.0 0.012341845 -0.16044398 -0.70348513
-0.18512768 -0.07405107 -0.41962272 -0.037025534 -0.09873476 0.3579135 -0.6417759 -0.13576029
0.27152058 -0.41962272 0.3332298 0.012341845 -0.07405107 -0.12341845 -0.4443064 0.0
-0.34557167 -0.13576029 0.09873476 0.04936738 -0.4072809 -0.83924544 -0.02468369 -0.14810213
-0.04936738 0.012341845 0.38259718 -0.2221532 -0.7775362 0.19746952 -0.61709225 -0.17278583
-0.1110766 -0.08639292 -0.17278583 -0.061709225 -0.30854613 -0.75285256 0.39493904 -0.08639292
