tutorials/notebooks/models/mobilenet_v2_128_0.5.onnx (onnx, 796513 bytes, 127 tensors)

StatefulPartitionedCall/mobilenet_v2_128_0.5/predictions_dense/MatMul/ReadVariableOp:0 f4 [16, 2]
0	0x3e33eea4	0.17571503
1	0xbe2fbb00	-0.17161179
2	0x3da31f81	0.07964993
3	0xbcc6b4f2	-0.024256203
4	0x3e740b92	0.23832539
5	0xbeaa02f1	-0.3320537
6	0xbca35ab1	-0.019940706
7	0x3cc0f9d7	0.023556633
8	0x3c5af9fc	0.013365265
9	0x3a11960e	0.0005553671
10	0x3e3c6e3e	0.18401429
11	0xbdb9d0d4	-0.09073034
12	0xbe3e45e4	-0.18581349
13	0x3e31f77e	0.17379567
14	0x3c0a2ae3	0.008433077
15	0xbd68bf2e	-0.05682295
16	0x3e10baba	0.1413373
17	0xbe061609	-0.13094343
18	0x3d7bce26	0.061475895
19	0xbdb7475a	-0.08949156
20	0xbe6de88b	-0.2323324
21	0x3e89ab03	0.26888284
22	0xbcbe4139	-0.02322446
23	0x3c9aeb5d	0.018911058
24	0x3d9088e8	0.07057363
25	0xbdc60e1c	-0.0967066
26	0xbcacdeb5	-0.021102289
27	0x3cce3c3d	0.025175208
28	0xbd8591c3	-0.065219425
29	0x3d0f2b5e	0.034953468
30	0xbda7e1e3	-0.08197381
31	0x3dfa9f07	0.12237363

StatefulPartitionedCall/mobilenet_v2_128_0.5/predictions_dense/BiasAdd/ReadVariableOp:0 f4 [2]
0	0x3e1f883c	0.15579313
1	0xbe1f87d7	-0.15579163

StatefulPartitionedCall/mobilenet_v2_128_0.5/LAYER_97/depthwise_weights_fused_bn f4 [232, 1, 3, 3]
0	0x3e7756b1	0.24154164
1	0x3f054f3c	0.5207403
2	0x3ebeb8af	0.37250277
3	0xbc9a0c7d	-0.018804783
4	0x3f036711	0.5132914
5	0xbdeb014e	-0.11474858
6	0xbec45655	-0.38347116
7	0xbec78950	-0.3897195
8	0xbb5efc7b	-0.0034025002
9	0xbed0da89	-0.4079173
10	0xbeffde2c	-0.4997419
11	0xbd8cfcc3	-0.06884148
12	0x3d99a28c	0.075017065
13	0xbdefb33f	-0.1170411
14	0xbf1238c1	-0.5711785
15	0x3bbf4ede	0.005838259
16	0x3ebbf3a5	0.36709324
17	0xbe248670	-0.16066909
18	0x3f60143a	0.87530863
19	0x3eaa4abe	0.3326015
20	0x3eeb171b	0.45916066
21	0x3f27c167	0.65529484
22	0x3d02477f	0.031806465
23	0x3ea0bb74	0.31393015
24	0x3f9b2804	1.2121587
25	0x3eac996e	0.33710808
26	0x3f7b6e84	0.9821551
27	0x3f42d575	0.7610696
28	0x3fb106bf	1.3830184
29	0x3e99a1ca	0.30006248
30	0xbe169045	-0.14703472
31	0xbf97fdbf	-1.1874312
32	0xbfb6e848	-1.4289637
33	0x3fa006ce	1.2502077
34	0x3f5ef949	0.8709913
35	0x3f5480fb	0.8300931
36	0xbb1dda61	-0.0024086463
37	0xba8f50ad	-0.0010934077
38	0xbae3166b	-0.0017325407
39	0xbb67afe5	-0.0035352644
40	0x3a6e5b03	0.00090925413
41	0xbb62cd5f	-0.0034607274
42	0xbb1acb90	-0.0023619868
43	0xbaf4ce70	-0.0018677246
44	0xbb0800af	-0.002075236
45	0x3e8dd7e5	0.27703777
46	0xbe6b2380	-0.22962761
47	0x3eeb22f4	0.45925105
48	0xbd2042a8	-0.03912607
49	0xc000e1ec	-2.0137892
50	0x3f87c93f	1.060829
51	0x3e938681	0.28813556
52	0x3e14de15	0.14537843
53	0x3f5c720b	0.86111516
54	0x3f8cd8a5	1.1003615
55	0x3e589041	0.21148778
56	0xbf28b461	-0.65900236
57	0x3ea744c6	0.32669657
58	0x3fabded2	1.3427374
59	0x3f7e770c	0.994004
60	0x3efa08d2	0.48834854
61	0x3f7adaa0	0.97989845
62	0x3f8c8e0f	1.0980853
63	0x42cc7593	102.22964
64	0x42d5672b	106.7015
65	0x42e7d4f7	115.91595
66	0xc1b2174f	-22.261381
67	0xc1fec801	-31.847658
68	0x42294fba	42.327858
69	0x422fd1c4	43.95485
70	0x428225ee	65.07408
71	0x42779089	61.891148
72	0xc0b4bbcd	-5.647925
73	0xc0eff48c	-7.498602
74	0xbfde0f96	-1.7348506
75	0xbff612b8	-1.9224463
76	0xc08c4e5a	-4.3845644
77	0xbfedfa7c	-1.8592067
78	0xc0ac1e38	-5.378689
79	0x40f274c1	7.576752
80	0xc078763c	-3.8822165
81	0xbed2aaa3	-0.4114581
82	0xbf46d08b	-0.7766196
83	0xbebb73a3	-0.3661166
84	0x3fe735d9	1.8063308
85	0xbf198739	-0.5997196
86	0xbf70d731	-0.94078356
87	0x3f09640c	0.53668284
88	0xbf1f9f02	-0.62352
89	0xbebd0d06	-0.36924
90	0x3d6d491b	0.057931047
91	0x3d886090	0.06659043
92	0x3c5f514f	0.013630225
93	0x3d340ca0	0.043957353
94	0x3d0e0016	0.03466805
95	0xbdb1558a	-0.086588934
96	0xbd05b311	-0.032641474
97	0xbd590b7c	-0.052989468
98	0x3c5dcee9	0.013538101
99	0x3ec93b5c	0.393031
100	0xbf09d3ee	-0.53839004
101	0x3ea49af5	0.32149473
102	0x3f1a2897	0.60218185
103	0xbd98d691	-0.074628
104	0x3f651e1c	0.8949907
105	0x3d6f462a	0.058416523
106	0xbf40a661	-0.75253874
107	0xbe0578d5	-0.13034375
108	0x3e0abf49	0.13549532
109	0x3d9fa5d6	0.077953026
110	0x3d4ca436	0.04996129
111	0x3e19ba3a	0.15012446
112	0x3e1ff7c4	0.15621859
113	0xbbeff39a	-0.0073227407
114	0x3d77aa66	0.06046524
115	0xbb2e1c55	-0.002656718
116	0xbc86e149	-0.016464846
117	0xbe7c1652	-0.2461789
118	0xbe527fd0	-0.20556569
119	0xbe7d3d84	-0.24730498
120	0xbee45a54	-0.44600165
121	0xbcfef1d7	-0.031121178
122	0xbea1ddf0	-0.31614637
123	0xbddfac73	-0.10921564
124	0x3f11fbcd	0.5702484
125	0xbe035f66	-0.1282936
126	0x3e2ac49e	0.16676566
127	0xbee87754	-0.4540354
128	0xbea13861	-0.31488326
129	0x3f27173d	0.65269834
130	0xbed5ac80	-0.4173317
131	0xbdd3a1c3	-0.10333588
132	0x3e8d13fc	0.2755431
133	0xbf09d43a	-0.5383946
134	0xbec6a9e0	-0.3880148
135	0x3ebe3532	0.3714996
136	0x3f03b4c2	0.5144769
137	0x3e8ed2e4	0.27895272
138	0x3d791101	0.06080723
139	0x3e9f2b76	0.31087846
140	0xbd205889	-0.039146934
141	0x3d3734ea	0.044728197
142	0xbdff9f74	-0.12481585
143	0x3ecac647	0.396044
144	0x3d370706	0.044684432
145	0xbdab8044	-0.08374074
146	0x3d26018d	0.040528823
147	0xbf0b3ae5	-0.5438674
148	0xbe91ce79	-0.2847784
149	0xbd86bbd7	-0.06578796
150	0x3ddfcf48	0.10928208
151	0xbe9c5933	-0.30536804
152	0x3e3c08d3	0.18362741
153	0xbe8289c0	-0.2549572
154	0x3effb5fd	0.49943534
155	0x3d1c2518	0.038121313
156	0xbe9f972d	-0.31170025
157	0x3e469ea0	0.19396448
158	0xbea55508	-0.32291436
159	0x3f0e42d9	0.5557075
160	0xbebfdabc	-0.3747157
161	0xbdfa59a1	-0.122241266
162	0xbbca7110	-0.006178029
163	0x3d9c39b4	0.076281935
164	0x3dc6a5e6	0.09699611
165	0xbc579ab0	-0.013159439
166	0x3db467f8	0.08808893
167	0x3bbe83b2	0.005814039
168	0x3d0b25b7	0.033971515
169	0xbca18f42	-0.019721631
170	0x3dce4401	0.100715645
171	0xbdcfea29	-0.101520844
172	0xbef3faab	-0.47652182
173	0xbf966c3e	-1.1751783
174	0xbf688ff9	-0.90844685
175	0x3e56d36c	0.20979089
176	0xbd60241b	-0.054721933
177	0xbdf5ffbd	-0.12011669
178	0xbe67d9b4	-0.22641641
179	0x3f85c506	1.0450752
180	0xb820b444	-3.8314858e-05
181	0xbcbb2572	-0.022845004
182	0xbcbdc4f7	-0.02316521
183	0x3ce7c179	0.028290497
184	0xbc1ec4c8	-0.009690471
185	0x3c894f87	0.016761554
186	0x3d21d8bc	0.039513335
187	0x3cce739f	0.025201617
188	0x3ca6e9e7	0.020375205
189	0x3ddd2b25	0.10799245
190	0xbdb99a10	-0.09062588
191	0x3f53558c	0.8255241
192	0x3d26a8ec	0.04068844
193	0x3ec7ae64	0.39000237
194	0x3ec7e9d6	0.3904559
195	0x3d802fff	0.062591545
196	0xbe86ccae	-0.26328033
197	0x3d1fa98e	0.03898006
198	0xbe54abbc	-0.20768636
199	0xbe272a45	-0.16324718
200	0xbdfc5fdc	-0.12322971
201	0x3dd8a2cd	0.10577927
202	0x3e16d26f	0.14728712
203	0xbe0b4a4d	-0.13602562
204	0x3e16b7fe	0.14718625
205	0x3d8f98de	0.07011579
206	0xbdb11389	-0.08646304
207	0x3b10209b	0.002199209
208	0xbd804807	-0.06263738
209	0xbf2642fd	-0.64945966
210	0xbe0ab6d8	-0.13546312
211	0xbfa26d55	-1.2689615
212	0xbf03d770	-0.51500607
213	0x3efcfce8	0.49411702
214	0x3e2feac0	0.17179394
215	0x3e370cd3	0.17875986
216	0xbd7c98fb	-0.06166933
217	0xbe610a3b	-0.21976559
218	0x3e42538b	0.18977182
219	0x3de247d6	0.11048858
220	0xbba20334	-0.0049442295
221	0xbd13630a	-0.035983123
222	0xbe5e9507	-0.21736537
223	0xbe275251	-0.16339995
224	0xbcf176b7	-0.029475553
225	0xbf08ddbd	-0.53463346
226	0xbf361b4d	-0.7113541
227	0xbf1e806c	-0.61914706
228	0xbed2564b	-0.4108146
229	0xbd8ce4f3	-0.06879606
230	0xbeee4cbc	-0.4654292
231	0xbee5b1a4	-0.44862092
232	0xbec79033	-0.38977203
233	0xbf00ff93	-0.50389975
234	0x3e9073ea	0.28213435
235	0x3eb9c9fb	0.3628691
236	0x3e60bc6c	0.21946877
237	0x3ea43a05	0.32075515
238	0xbea70516	-0.32621068
239	0x3ca03dfa	0.019560803
240	0x3e94f74d	0.29094926
241	0x3e99371d	0.2992486
242	0x3ddc5e3c	0.10760161
243	0x3e162619	0.1466297
244	0x3dbefc03	0.09325411
245	0xbdf676ed	-0.12034402
246	0xbd45e634	-0.048315242
247	0x3a1cb9d3	0.00059786177
248	0xbcc2bfbc	-0.023773067
249	0xbe74365d	-0.23848863
250	0xbe0f01b5	-0.13965495
251	0xbe01026a	-0.12598577
252	0xbd942d2c	-0.07235178
253	0xbdff42f2	-0.12463941
254	0xbdadc1ec	-0.08484253
255	0xbdb1c779	-0.086806245

StatefulPartitionedCall/mobilenet_v2_128_0.5/LAYER_97/depthwise_bias_fused_bn f4 [232]
0	0xbeb35afb	-0.3503035
1	0xbc94cab8	-0.01816307
2	0x3d2c0b08	0.042002708
3	0xbed4d33f	-0.41567418
4	0x3c154460	0.00911054
5	0x3e29fd7d	0.16600604
6	0xbe644d8d	-0.22295208
7	0xbdf6e17c	-0.120547265
8	0xbd8e482c	-0.069473594
9	0x3db9f853	0.09080567
10	0x3e5698a5	0.20956667
11	0xbd12fa60	-0.035883307
12	0xbebdf597	-0.37101433
13	0xbeba136a	-0.36342937
14	0x3d35a57c	0.04434727
15	0xbf6265a0	-0.8843632
16	0x3ca12f94	0.019676007
17	0xbbc15950	-0.0059005395
18	0xbe5ce600	-0.21572113
19	0x3f3310c6	0.6994747
20	0x3db39da6	0.087703034
21	0xbf124673	-0.57138747
22	0xbefd5c28	-0.49484372
23	0xbdf57102	-0.11984445
24	0x3b323b60	0.0027196035
25	0x3fb96de4	1.4486661
26	0xbf193b04	-0.59855676
27	0x3ea6388c	0.32465017
28	0x3e36dae6	0.1785694
29	0x3f8d6491	1.1046315
30	0x3f11992b	0.5687434
31	0x3ed729e3	0.42024145
32	0xbe98f2a9	-0.29872635
33	0xbe23cefc	-0.15996927
34	0xbebd83aa	-0.37014514
35	0xbe214f2f	-0.15752862
36	0xbe4eef94	-0.2020858
37	0x3d06cc4b	0.032909673
38	0x3ddf3e71	0.10900582
39	0xbb486ef8	-0.003058372
40	0xbd112410	-0.035434783
41	0x3ec88a61	0.39168075
42	0xbe8ec5b9	-0.27885225
43	0xbeebffb7	-0.46093532
44	0x3d44a015	0.04800423
45	0x3e42ecdf	0.19035672
46	0x3cc0f030	0.02355203
47	0xbe533b9e	-0.20628211
48	0xbeba7366	-0.36416167
49	0xbf1c31d0	-0.6101351
50	0xbe523b18	-0.20530355
51	0xbe69de18	-0.22838628
52	0x3d7a0b88	0.061046153
53	0xbf0013e6	-0.5003036
54	0xbeddb546	-0.43302363
55	0x3cef4fe3	0.029212898
56	0xbec0bef7	-0.37645695
57	0xbe360029	-0.17773499
58	0xbede78d6	-0.43451566
59	0xbe9851bd	-0.2974986
60	0xbef003b3	-0.46877822
61	0xbe3bc5b0	-0.1833713
62	0xbdd5835e	-0.10425447
63	0x3ec49cde	0.3840093
64	0x3ecd5c2e	0.4010939
65	0xbe022877	-0.12710749
66	0xbebaa144	-0.3645116
67	0xbf141c1f	-0.5785541
68	0xbb752300	-0.0037404895
69	0xbf2ce7ae	-0.67541015
70	0xbe117037	-0.14202963
71	0x3ec2b0dd	0.3802556
72	0x3faacd20	1.3343849
73	0x3ebb0a2e	0.36531204
74	0x3c368800	0.011140823
75	0xbe946699	-0.28984526
76	0xbeaecdc3	-0.3414136
77	0x3e5e435a	0.2170538
78	0x3ec0863a	0.37602407
79	0xbe594169	-0.21216358
80	0xbe7b910a	-0.24567047
81	0xbe9299ca	-0.28632957
82	0x3eec16af	0.46111056
83	0x3dd17690	0.10227692
84	0x3e98f81c	0.29876792
85	0x3dcc7486	0.099831626
86	0xbe2439c9	-0.16037668
87	0xbf0387c9	-0.51379067
88	0x3eef733a	0.46767598
89	0x3e1dbdbe	0.15404412
90	0xbf990016	-1.1953151
91	0x3f462d99	0.77413327
92	0x3c866f82	0.016410593
93	0x3ef495bd	0.4777049
94	0x3d471e8e	0.048613124
95	0x3f519b0b	0.818772
96	0x3ee0da30	0.43916464
97	0x3ed4933e	0.41518587
98	0x3e2c51c5	0.16828068
99	0xbe35cf74	-0.17754918
100	0x3ebffb12	0.3749624
101	0xbe8698a6	-0.26288337
102	0xbe92ff35	-0.28710333
103	0x3e40aa9f	0.18815087
104	0xbe29c658	-0.16579568
105	0x3f312934	0.69203496
106	0xbea86cfa	-0.32895643
107	0xbf1135dc	-0.5672281
108	0xbe241a73	-0.16025715
109	0xbe776698	-0.2416023
110	0x3ead21da	0.3381489
111	0x3f021118	0.50807333
112	0x3dbc4ef2	0.09194745
113	0xbefebced	-0.49753514
114	0xbd07e802	-0.033180244
115	0x3cfb1b30	0.030652612
116	0xbe9c69d9	-0.30549505
117	0x3eb1fe0c	0.34764135
118	0xbf002cd7	-0.5006842
119	0xbd28eacc	-0.041239545
120	0xbee44961	-0.44587234
121	0x3dc0949a	0.094033435
122	0xbe175263	-0.14777522
123	0xbd52c604	-0.051458374
124	0x3da0d306	0.078527495
125	0x3e9b2618	0.303025
126	0xbf37cb4c	-0.7179458
127	0x3f689c80	0.908638
128	0xbe9e98fc	-0.30976093
129	0xbf3a4a91	-0.7277003
130	0xbdcaba00	-0.09898758
131	0xbe95fcaa	-0.2929433
132	0x3cd8e1a8	0.026474789
133	0xbd4f3500	-0.050587654
134	0x3ed1f2b5	0.41005483
135	0x3d3470c4	0.044052854
136	0xbf2bdc83	-0.6713335
137	0xbe8814ea	-0.26578456
138	0xbd792db0	-0.060834587
139	0x3f0df3dd	0.5545023
140	0xbde99c8a	-0.114068106
141	0x3d36dad4	0.044642285
142	0xbeb73c03	-0.35787973
143	0x3d27ef2a	0.04099957
144	0xbf12e48f	-0.5738
145	0x3ee8ba5f	0.4545469
146	0xbe62b0b7	-0.22137724
147	0xbe8093d3	-0.2511278
148	0x3f44d7c2	0.7689172
149	0xbec89485	-0.3917581
150	0x3c950fa8	0.018195942
151	0xbe6736d9	-0.22579516
152	0x3dd01713	0.10160651
153	0xbf2ba5ee	-0.67050064
154	0x3d0d615c	0.034516677
155	0xbe8d6a59	-0.276202
156	0x3e40811e	0.18799254
157	0xbf02d175	-0.51100856
158	0xbf2cfce4	-0.6757338
159	0x3e257f6e	0.16161892
160	0x3f02eb19	0.5113998
161	0xbfc69c3d	-1.551643
162	0x3ee175ee	0.44035286
163	0xbde907c8	-0.11378437
164	0xbe56af5e	-0.20965335
165	0x3e95aaf2	0.29231983
166	0x3f0774d7	0.5291266
167	0xbf084787	-0.5323414
168	0x3eb3c992	0.35114723
169	0xbbcd7fc0	-0.0062713325
170	0x3ebd2b6a	0.36947185
171	0xbd185b24	-0.037196293
172	0x3fcd3c9c	1.6034122
173	0xbd5e10ac	-0.05421512
174	0xbe8ce796	-0.27520436
175	0x3d35f725	0.04442515
176	0xbed9fb33	-0.42574462
177	0x3ec47d54	0.38376868
178	0xbe0acc14	-0.13554412
179	0x3fd65ba9	1.6746722
180	0x3d12868c	0.035772845
181	0xbe5773bb	-0.21040241
182	0xbf00ddd5	-0.5033849
183	0x3efae065	0.48999324
184	0xbe078bac	-0.13236874
185	0x3f3e31cd	0.7429474
186	0x3fc75c91	1.5575124
187	0xbea0719f	-0.31336686
188	0xbdc4fe52	-0.0961882
189	0xbe36ebf6	-0.1786345
190	0x401a1d5b	2.4080417
191	0xbd7a470c	-0.06110291
192	0x3dd6c1e5	0.10486201
193	0xbbc17160	-0.005903408
194	0xbe9ffad6	-0.3124606
195	0xbda9881d	-0.08277915
196	0x3e2995c0	0.16561031
197	0xbeafeba8	-0.3435948
198	0xbcf604ee	-0.030031648
199	0xbd5f9eae	-0.054594688
200	0x3f4d2ab1	0.80143267
201	0xbd5e22ae	-0.054232292
202	0x3d6eaa30	0.058267772
203	0xbeca4806	-0.39508075
204	0x3e96e866	0.2947418
205	0x3eaf3dac	0.3422674
206	0x3f20def5	0.62840205
207	0xbcca4404	-0.024690636
208	0xbea16f5e	-0.3153028
209	0x3ebd598e	0.36982387
210	0xbdab58eb	-0.08366569
211	0xbf420119	-0.75782925
212	0x3ecd965d	0.4015378
213	0x3e8089d1	0.25105146
214	0x3a7dc000	0.00096797943
215	0xbe7f168d	-0.24910946
216	0xbee90857	-0.45514175
217	0xbce57028	-0.028007582
218	0xbe7a4a9f	-0.24442528
219	0x3f079c9f	0.5297336
220	0x3db485dc	0.08814594
221	0xbef56934	-0.47931826
222	0x3e9677bb	0.29388222
223	0x3ea1cab3	0.3159996
224	0xbe93c1f8	-0.28858924
225	0x3d66bfc6	0.056335233
226	0xbeb1e6ba	-0.34746343
227	0xbeac9d98	-0.33713984
228	0x3e957ff3	0.2919918
229	0x3ea6e07c	0.32593143
230	0x3f3f53eb	0.74737424
231	0xbecae541	-0.39628032

StatefulPartitionedCall/mobilenet_v2_128_0.5/LAYER_95/ReadVariableOp_1:0 f4 [232]
0	0x3ef742e9	0.48293236
1	0x3df8a5ae	0.12140976
2	0xbe36fad5	-0.17869122
3	0xbd1f6012	-0.03890998
4	0x3f1d139f	0.61358064
5	0x3ea637e5	0.3246452
6	0x3b7d5785	0.0038656902
7	0xbf486100	-0.7827301
8	0x3bf97d01	0.0076137786
9	0xbdcb4963	-0.09926107
10	0xbe807702	-0.25090796
11	0x3e4e07ea	0.20120206
12	0x3da2fe08	0.07958609
13	0xbe05ecfb	-0.13078682
14	0x3e0d10a1	0.13775875
15	0x3e2cfcd6	0.16893324
16	0xbe57e1dc	-0.21082252
17	0x3e81ee33	0.25377044
18	0xbdbaa717	-0.09113901
19	0x3ee6cde7	0.45078966
20	0xbda01290	-0.078160405
21	0x3eda7a96	0.4267165
22	0xbb1c6487	-0.002386363
23	0xbc7b4334	-0.015335847
24	0x3e8536e1	0.26018432
25	0x3eb0bc30	0.34518576
26	0x3c971b6a	0.01844569
27	0xbebb1d47	-0.36545774
28	0x3e807f6a	0.2509721
29	0x3e1ac538	0.15114295
30	0x3f028a09	0.50991875
31	0xbe070d20	-0.131886
32	0x3e6c4eba	0.23076907
33	0x3e911516	0.283364
34	0xbdc520ac	-0.09625372
35	0x3e953b9e	0.29147047
36	0xbebb11c1	-0.36536983
37	0xbe81333b	-0.25234398
38	0xbea55b8f	-0.32296416
39	0x3df8f993	0.121569775
40	0xbe967757	-0.29387924
41	0x3e83dcfc	0.25754535
42	0xbe64e24a	-0.22351947
43	0xbe662eea	-0.22478834
44	0x3e8e1480	0.27750015
45	0x3d464f7e	0.048415653
46	0x3e64122f	0.22272561
47	0x3eafba90	0.34322023
48	0x3f3198a5	0.6937354
49	0xbdceb5be	-0.10093258
50	0x3e89d01c	0.26916587
51	0x3f182376	0.5942911
52	0x3e2814e5	0.1641422
53	0x3ccedb58	0.025251076
54	0x3e6f0bca	0.23344341
55	0xbe746fa2	-0.2387071
56	0x3c726e5d	0.0147968205
57	0xbddd84a3	-0.10816314
58	0xbe8122bf	-0.25221822
59	0x3f2fb996	0.68642557
60	0xbe7bf7fd	-0.24606319
61	0xbe6a3c7e	-0.22874638
62	0x3e999aa2	0.30000788
63	0xbdcbc766	-0.099501416
64	0xbe51b2db	-0.20478384
65	0x3e2f030c	0.17091006
66	0x3e165833	0.14682083
67	0x3eddc592	0.43314797
68	0x3f05abc1	0.522152
69	0x3ddf7f77	0.10912984
70	0x3e275542	0.16341117
71	0xbeacc584	-0.33744442
72	0x3f3aa695	0.72910434
73	0xbe13348c	-0.14375514
74	0x3e7fdefa	0.24987403
75	0xbecd332b	-0.400781
76	0xbd957ff4	-0.07299796
77	0xbdfe1edc	-0.1240823
78	0xbf233e98	-0.63767385
79	0x3d499b2d	0.049220253
80	0xbe203875	-0.15646537
81	0x3e74dcc6	0.23912343
82	0xbdb4dd78	-0.08831304
83	0xbeebac61	-0.46029952
84	0xbe5470db	-0.20746176
85	0x3c9d74ea	0.019220788
86	0xbc7b97d7	-0.015356026
87	0xbe6634cf	-0.22481082
88	0x3e2fe21e	0.171761
89	0x3e1bd918	0.15219533
90	0x3f13308c	0.5749595
91	0xbdd943d4	-0.1060864
92	0x3dec00d4	0.115235955
93	0x3e9d699d	0.3074464
94	0xbdf5bfbc	-0.11999461
95	0x3f1dab94	0.6158993
96	0xbea172bc	-0.31532848
97	0xbeac5060	-0.3365507
98	0xbe2502a7	-0.16114293
99	0x3e5619fd	0.20908351
100	0x3eb33e60	0.35008526
101	0xbe1e2bda	-0.15446416
102	0x3f08b3a6	0.5339912
103	0x3e90721c	0.2821206
104	0xbccfca6f	-0.025365083
105	0x3f22434a	0.63383925
106	0xbdaa5e58	-0.08318776
107	0xbd0289a9	-0.031869564
108	0xbd95c2d7	-0.073125534
109	0xbdb141c8	-0.08655125
110	0xbe1f0d1c	-0.15532345
111	0xbcbb485c	-0.022861652
112	0x3dc0bc18	0.09410876
113	0x3eff87c0	0.49908257
114	0x3ede2546	0.43387812
115	0x3f08ce1b	0.5343949
116	0xbe409bfa	-0.188095
117	0x3cd440dc	0.025909834
118	0x3e7b3028	0.24530089
119	0x3e3cbf86	0.18432435
120	0xbde05e9a	-0.10955544
121	0x3ed85a98	0.42256618
122	0x3ea3b746	0.31975764
123	0xbf369e93	-0.71335715
124	0xbe64e53d	-0.22353072
125	0x3e8f85fd	0.28031912
126	0x3e064373	0.13111667
127	0xbe0cbed2	-0.13744667
128	0x3e8d9065	0.27649227
129	0x3ee181dd	0.4404439
130	0x3d8d5a41	0.0690198
131	0xbdd850a5	-0.10562257
132	0xbf1f2dcb	-0.6217925
133	0xbd8b6e87	-0.06808191
134	0x3e85e65e	0.2615232
135	0x3bf35998	0.007426452
136	0x3e1edaaf	0.15513109
137	0xbe6886a0	-0.22707605
138	0x3dd22ba4	0.1026223
139	0xbd431455	-0.047626812
140	0x3e7ce741	0.24697591
141	0xbcf990fd	-0.030464644
142	0xbd99af02	-0.07504083
143	0x3f1c5f3f	0.61082834
144	0x3da06ae1	0.078328855
145	0x3ee902c2	0.45509917
146	0x3f1a3646	0.60239065
147	0xbdd7f213	-0.10544219
148	0x3e9f8e20	0.3116312
149	0x3f187b8a	0.59563506
150	0x3d795d28	0.060879856
151	0xbcbc1cdf	-0.022962986
152	0xbdfa62ad	-0.12225852
153	0xbe434421	-0.19068958
154	0x3e23b8f1	0.15988518
155	0xbf0550ca	-0.520764
156	0xbe91fac3	-0.28511629
157	0xbe1010cf	-0.14068912
158	0xbe8d962a	-0.2765363
159	0x3e27e8c8	0.16397393
160	0x3dd80019	0.105468936
161	0x3f11567f	0.5677261
162	0xbe5768ff	-0.21036147
163	0x3f0324ff	0.51228327
164	0xbc5c6d83	-0.013453844
165	0x3e9ee045	0.3103048
166	0x3ed13f3b	0.40868554
167	0x3e8f64af	0.28006503
168	0xbbd9af13	-0.006643185
169	0x3e8841e3	0.26612768
170	0x3e9f5dfc	0.31126392
171	0x3dd486bd	0.10377262
172	0x3f16a386	0.58843267
173	0xbe3f9116	-0.1870769
174	0x3e0b3a9c	0.13596576
175	0x3e168271	0.14698197
176	0xbee1b2c5	-0.44081703
177	0x3c00b9a8	0.007856764
178	0xbd054d53	-0.032544445
179	0x3f0523e2	0.5200788
180	0x3d6f29a7	0.058389332
181	0xbe69b89d	-0.2282433
182	0x3ddf4b1b	0.10902997
183	0x3f0d83d4	0.5527928
184	0x3e4df1e7	0.2011181
185	0x3eb40cc2	0.35165983
186	0x3f055700	0.52085876
187	0xbe8f9f3b	-0.2805117
188	0x3e92f7f6	0.28704804
189	0x3dfa6331	0.122259505
190	0x3f38b351	0.72148615
191	0x3daa7087	0.08322244
192	0xbd7c3275	-0.061571557
193	0xbb496c15	-0.0030734588
194	0x3ea645e0	0.32475185
195	0x3e044704	0.12917715
196	0xbea59d09	-0.3234637
197	0xbe3c87a6	-0.18411121
198	0x3e4fde79	0.2029971
199	0xbe2f34b7	-0.17109953
200	0x3f1e9ba5	0.61956245
201	0xbe11ed01	-0.14250566
202	0x3e492f97	0.1964706
203	0xbd48f778	-0.04906413
204	0xbea073b9	-0.3133829
205	0xbe800761	-0.2500563
206	0x3f0d2c41	0.5514565
207	0x3eaea8b6	0.3411309
208	0x3e207371	0.15669037
209	0x3d80cf34	0.06289521
210	0xbe6fd01d	-0.23419233
211	0x3ec0c4d2	0.37650162
212	0x3e9fa762	0.3118239
213	0x3f290902	0.6602937
214	0x3eb3c170	0.3510852
215	0xbe73f2c1	-0.23823072
216	0x3d19d9d9	0.03756127
217	0x3e3fca5c	0.18729538
218	0xbdbd4c79	-0.092431016
219	0xbe3cec40	-0.18449497
220	0x3e66ea75	0.22550376
221	0x3e114bb2	0.14189032
222	0xbd98b403	-0.074562095
223	0xbdd6abb5	-0.10481969
224	0x3e1e88ef	0.15481924
225	0x3c7b37ba	0.0153331105
226	0x3ea79402	0.32730108
227	0xbca47c39	-0.020078765
228	0xbe99037f	-0.2988548
229	0x3e3a07f1	0.18167092
230	0xbeadccdf	-0.33945367
231	0xbe7c995f	-0.24667881

StatefulPartitionedCall/mobilenet_v2_128_0.5/LAYER_95/ReadVariableOp:0 f4 [232]
0	0xbd8137cd	-0.06309471
1	0x3e98fd7a	0.29880887
2	0x3eb9064a	0.3613761
3	0x3e20717a	0.15668288
4	0xbec0d2b3	-0.3766075
5	0x3e749176	0.23883614
6	0x3ecfa2b1	0.4055381
7	0xbcb19274	-0.02167628
8	0x3ecc689b	0.39923558
9	0x3ed06bf9	0.40707377
10	0x3ecf9f44	0.40551198
11	0x3ea872df	0.3290014
12	0x3e91947b	0.28433594
13	0x3e70b4b0	0.23506427
14	0x3ea50340	0.32229042
15	0x3eded26e	0.4351992
16	0x3ef3c8cd	0.47614136
17	0x3f12f20e	0.57400596
18	0x3eff6f36	0.49889535
19	0x3defbcd9	0.11705942
20	0x3ea1bdbe	0.31590074
21	0xbe35b65c	-0.17745346
22	0x3ea0e070	0.31421232
23	0x3eed4e03	0.4634858
24	0x3e5384da	0.20656148
25	0x3e752a93	0.23942022
26	0x3e81762e	0.25285476
27	0x3e5626fd	0.2091331
28	0x3e66d859	0.22543468
29	0x3e886bd6	0.26644772
30	0xbea1ed42	-0.31626326
31	0x3ea241d6	0.31690854
32	0x3e62cebc	0.22149175
33	0x3ed33fd3	0.41259632
34	0x3ebbe218	0.36695933
35	0x3df21510	0.118204236
36	0xbd8715e6	-0.06595974
37	0x3eb45e18	0.35228038
38	0xbe92cf17	-0.28673622
39	0x3ef9475e	0.4868726
40	0xbefabe6c	-0.48973405
41	0x3ee2e99e	0.4431886
42	0x3e9aab00	0.30208588
43	0x3e7ebfc6	0.24877843
44	0x3e8eac20	0.27865696
45	0x3f18ff8e	0.59764946
46	0x3e649527	0.22322522
47	0x3daeee86	0.085415885
48	0xbeaa1d59	-0.33225515
49	0x3edccff8	0.43127418
50	0x3e585e74	0.21129781
51	0xbf05372c	-0.5203731
52	0x3e1f4d0b	0.15556733
53	0x3edf147a	0.4357031
54	0x3e4dae3e	0.20086
55	0x3f08d414	0.53448606
56	0x3f0ea205	0.5571597
57	0x3eeafb9b	0.45895085
58	0x3e85073c	0.25982082
59	0xbdede015	-0.11615006
60	0xbe99fa5e	-0.30073828
61	0x3ea45419	0.3209541
62	0xbe5973e4	-0.21235615
63	0x3ed0309d	0.4066209
64	0x3e9ba376	0.30398148
65	0x3ed33876	0.41254014
66	0x3f239cf8	0.6391139
67	0xbe336750	-0.1751988
68	0xbe86591e	-0.26239866
69	0x3eb7e2cb	0.35915217
70	0x3ef42e7e	0.4769172
71	0x3dafacf7	0.08577912
72	0xbc153c2d	-0.009108585
73	0x3e8ed0dc	0.27893722
74	0x3e3c04cc	0.18361205
75	0x3ebcb3f3	0.3685604
76	0x3ec15897	0.377629
77	0x3ee9038d	0.45510522
78	0xbe29e013	-0.16589384
79	0x3f18f068	0.5974183
80	0x3e73c50b	0.23805635
81	0x3efaccb7	0.4898431
82	0x3e82c960	0.25544262
83	0xbc34fda2	-0.011046799
84	0x3f080d1e	0.53145015
85	0x3ee8477c	0.45367038
86	0x3ebd7d9f	0.37009904
87	0x3ed7b6a6	0.42131537
88	0x3e8b20d8	0.27173495
89	0x3ed8d7c8	0.42352128
90	0xbe2ff7f2	-0.17184427
91	0x3ea4769d	0.32121745
92	0x3ecafbae	0.3964514
93	0x3ed41e7d	0.4142951
94	0x3ead2866	0.33819884
95	0xbd215e1c	-0.03939639
96	0xbbf4048c	-0.007446831
97	0x3ed6fbb9	0.41988924
98	0x3edf5a74	0.43623698
99	0x3e784709	0.24245848
100	0x3c9b6abd	0.018971795
101	0x3ec6dc70	0.38840055
102	0xbe9c2634	-0.30497897
103	0x3e3a84ce	0.18214723
104	0x3e9e6790	0.30938387
105	0xbed19b14	-0.40938628
106	0x3ea4f4bd	0.3221797
107	0x3eb11c1e	0.34591764
108	0x3ea41757	0.32049057
109	0x3ec448ca	0.38336784
110	0x3e7cdbac	0.24693173
111	0x3ed920b6	0.4240777
112	0x3ee209e7	0.4414818
113	0xbd4df0ce	-0.050278477
114	0xbdde441e	-0.10852836
115	0x3d1b9f91	0.03799397
116	0x3e8574ac	0.26065576
117	0x3eb2f39a	0.34951478
118	0x3dc6bc24	0.09703854
119	0x3ea28cb4	0.31747973
120	0x3eb29984	0.34882748
121	0x3f09f25f	0.53885454
122	0x3d8b0475	0.067879595
123	0xbd814cdb	-0.06313487
124	0x3e97b48f	0.29629943
125	0xbdabccba	-0.08388658
126	0x3f0abe60	0.5419674
127	0x3ec378ba	0.38178045
128	0x3e022fa9	0.12713493
129	0x3df0b39c	0.11753008
130	0x3ea9bbd7	0.33151123
131	0x3eb0c39b	0.34524235
132	0xbdebf07a	-0.11520477
133	0x3ed5d1d7	0.41761658
134	0x3e684a99	0.22684707
135	0x3ee4bfae	0.4467749
136	0x3e40a97c	0.18814653
137	0x3ec316ee	0.3810343
138	0x3e60001d	0.21875043
139	0x3ed740f4	0.42041743
140	0x3e84550d	0.2584614
141	0x3eabdb35	0.3356568
142	0x3d81238f	0.063056104
143	0xbecb4756	-0.39702863
144	0x3eaebd9c	0.34129035
145	0xbe91d7e0	-0.28485012
146	0xbec1774e	-0.37786335
147	0x3eca4495	0.3950545
148	0x3f0fd5e1	0.5618573
149	0xbe7345de	-0.23757121
150	0x3e8f470b	0.2798389
151	0x3e7e484e	0.2483227
152	0x3efa4e40	0.48887825
153	0x3ea4ba4b	0.3217338
154	0x3e36afb4	0.17840463
155	0xbedce5d9	-0.4314411
156	0x3d74f898	0.05980739
157	0x3eabb8b3	0.33539352
158	0x3d20a5c1	0.039220575
159	0x3e120ea3	0.14263396
160	0x3edec81c	0.43512046
161	0xbb00cc39	-0.0019652976
162	0x3ec7c40b	0.39016756
163	0xbefe5aaf	-0.4967856
164	0x3e97ac1e	0.29623502
165	0x3ea32dfa	0.31871015
166	0xbe818665	-0.25297847
167	0x3f1714f1	0.5901633
168	0x3ea5fea8	0.3242085
169	0x3e13ec29	0.14445557
170	0x3d59de26	0.053190373
171	0x3e471537	0.19441687
172	0x3d4b13af	0.04957932
173	0x3e8db5a0	0.2767763
174	0x3f11e3c3	0.5698816
175	0x3e578153	0.21045427
176	0x3f0dfbd9	0.55462414
177	0x3edc03c8	0.42971635
178	0x3eba2a3e	0.36360353
179	0xbc7936df	-0.015210836
180	0x3eeee7c8	0.4666121
181	0x3ec2d91b	0.38056263
182	0x3ea39c01	0.3195496
183	0xbe1e32ed	-0.15449114
184	0x3ebe9d79	0.37229517
185	0x3c948d7f	0.018133877
186	0x3d65b794	0.056083277
187	0x3e84d98f	0.25947234
188	0x3cd726b8	0.02626358
189	0x3eceacf4	0.40366328
190	0x3d0c76ce	0.03429299
191	0x3e9bdce9	0.3044198
192	0x3ebafb76	0.36519974
193	0x3ed52162	0.41627032
194	0x3df30084	0.11865333
195	0x3f09e101	0.53858954
196	0x3ecad209	0.3961337
197	0x3e16a748	0.1471225
198	0x3ebf0f2b	0.3731626
199	0x3f112567	0.56697696
200	0xbd7d777f	-0.06188154
201	0x3e613295	0.21991952
202	0x3e7fa8d7	0.24966751
203	0x3df7b7a8	0.120955765
204	0x3e4846e2	0.1955829
205	0x3ecdebaa	0.4021886
206	0xbe99a8af	-0.30011508
207	0xbe9de2c5	-0.30837074
208	0x3ea8b211	0.32948354
209	0x3ed5a8f7	0.41730472
210	0x3e9f81d7	0.31153747
211	0x3d70fd26	0.05883517
212	0x3dbfd07a	0.093659356
213	0xbeee67d6	-0.46563596
214	0x3d8ebfb0	0.06970155
215	0x3d79560a	0.06087307
216	0x3ea6e22d	0.32594433
217	0x3ea7f944	0.32807362
218	0x3ef5a3ff	0.47976682
219	0x3eff365d	0.49846163
220	0x3e3eeb3a	0.1864442
221	0x3eaad31a	0.33364183
222	0x3e8ac1e4	0.27101052
223	0x3f074625	0.5284141
224	0x3df85f1b	0.12127515
225	0x3f0baf17	0.5456404
226	0x3eb03f54	0.34423316
227	0x3e8e3ece	0.2778229
228	0x3e750638	0.23928154
229	0x3eec828a	0.46193343
230	0x3e941acf	0.28926703
231	0x3ed72229	0.4201825

StatefulPartitionedCall/mobilenet_v2_128_0.5/LAYER_95/FusedBatchNormV3/ReadVariableOp_1:0 f4 [232]
0	0x3aed5e67	0.0018109799
1	0x3c77e915	0.015131255
2	0x3e4b25fb	0.19838707
3	0x3cc1e983	0.023670917
4	0x38909a23	6.895165e-05
5	0x3d6d4056	0.057922684
6	0x2d38d238	1.0505867e-11
7	0x2e728064	5.5138463e-11
8	0x2d6bb7a9	1.3398984e-11
9	0x3cb7d400	0.022439957
10	0x3c253912	0.010084407
11	0x3cd44d93	0.025915897
12	0x3c7ee756	0.0155580845
13	0x3b64a270	0.003488686
14	0x3ca9e719	0.020740079
15	0x31b136ca	5.157607e-09
16	0x3c9e82b1	0.019349428
17	0x3cb70155	0.022339502
18	0x3c852c5e	0.016256507
19	0x3d224bec	0.039623186
20	0x3c41ecfc	0.011836287
21	0x3a8ca6f4	0.0010730908
22	0x3c474603	0.012162688
23	0x2f2017ad	1.4560327e-10
24	0x3c38251b	0.011239315
25	0x3e7e727f	0.24848364
26	0x3c3459c1	0.011007727
27	0x3c3e3471	0.011609183
28	0x3ca98c7b	0.02069687
29	0x3e1a7c00	0.15086365
30	0x3b21e5f2	0.0024703708
31	0x3cd55fdc	0.026046686
32	0x3cbc8479	0.023012387
33	0x3c749c60	0.014929861
34	0x3cd2d29e	0.025735196
35	0x3c2f49c2	0.010698738
36	0x30ba8fbc	1.3574133e-09
37	0x3c6a5898	0.014303349
38	0x3d41f17e	0.047349446
39	0x3e51d4c7	0.20491324
40	0x3a75011e	0.0009346175
41	0x3d105245	0.03523471
42	0x3c6cee64	0.014461134
43	0x3c68ebf5	0.014216413
44	0x3d3c25c4	0.045934454
45	0x3c7d07fc	0.015443798
46	0x3c8ea7d2	0.017414007
47	0x3be0e0be	0.006862729
48	0x3a950135	0.0011368158
49	0x3c9dd941	0.019268634
50	0x3f38a08c	0.72119975
51	0x3a80b30e	0.0009818987
52	0x3bf92c86	0.0076041846
53	0x3d261bcb	0.04055385
54	0x3d7ef04d	0.062240887
55	0x3ce0d1b6	0.027443748
56	0x3cd7d258	0.026345417
57	0x3cf772fc	0.030206196
58	0x2ba9bd35	1.2060688e-12
59	0x3b4c63fb	0.0031187523
60	0x3a43de16	0.0007471753
61	0x3d7c201e	0.061554067
62	0x38cd16f8	9.77944e-05
63	0x3d6f4928	0.058419377
64	0x3cb0bfab	0.02157577
65	0x3d0d53e0	0.034503818
66	0x3f001f61	0.5004788
67	0x2ef0bff6	1.09480355e-10
68	0x39cfd8c6	0.00039643625
69	0x3c997d07	0.018736375
70	0x3c5c6dae	0.013453884
71	0x3b72d6dc	0.0037054336
72	0x3ab8b7fd	0.0014092919
73	0x3d2a4e1f	0.04157841
74	0x3dad043d	0.08448074
75	0x3e31af3c	0.17352003
76	0x2d29eb83	9.658832e-12
77	0x3ca5e553	0.020250952
78	0x37427d2f	1.1592448e-05
79	0x3decb2cf	0.115575425
80	0x36d341dc	6.295957e-06
81	0x3d0653e6	0.032794856
82	0x3c0283e1	0.007966013
83	0x2d048e62	7.534947e-12
84	0x3d03ec09	0.032207523
85	0x3ce8e445	0.02842916
86	0x3c705718	0.014669202
87	0x3d9d9caf	0.07695901
88	0x3d567fbe	0.05236792
89	0x3d0ddf3d	0.034636725
90	0x3c452589	0.012032875
91	0x3c85cc8b	0.016332885
92	0x3c863c19	0.016386079
93	0x3d8fc866	0.07020645
94	0x3c88ecf3	0.016714549
95	0x3aa2df5f	0.0012426189
96	0x2c5f3550	3.17198e-12
97	0x3d6f0d8d	0.058362532
98	0x3ce48c2f	0.027898876
99	0x3cad287a	0.021137465
100	0x3b0f63f3	0.0021879643
101	0x2e561b35	4.868213e-11
102	0x3e115065	0.14190824
103	0x3ed9dc95	0.42551103
104	0x3c07133a	0.00824433
105	0x3aa4f272	0.0012584461
106	0x3c77a53c	0.015115079
107	0x3d39dc32	0.04537601
108	0x3c6f0238	0.014587931
109	0x3cb410cc	0.021980666
110	0x3bf3253f	0.0074202116
111	0x3c3b6478	0.011437528
112	0x3c978d32	0.018499944
113	0x3b4341be	0.0029793824
114	0x39be8e30	0.00036345562
115	0x3b1f28bf	0.0024285761
116	0x2c664994	3.272581e-12
117	0x3d16d245	0.036821622
118	0x2c5081c4	2.9630612e-12
119	0x3ea90407	0.33010885
120	0x2fa5f15c	3.018482e-10
121	0x3cafbcc3	0.021452313
122	0x3996fe19	0.00028799547
123	0x32fc509d	2.937332e-08
124	0x3d056181	0.03256369
125	0x3aac6429	0.0013152409
126	0x2caa8967	4.8469453e-12
127	0x3e5fdadf	0.21860836
128	0x2a6e1128	2.1144599e-13
129	0x2d3bf768	1.06846546e-11
130	0x3c7dc4f4	0.015488852
131	0x3c92dedc	0.017928533
132	0x2e156281	3.3966167e-11
133	0x3cf154ff	0.029459475
134	0x3d0739eb	0.03301422
135	0x3cb62790	0.022235662
136	0x3c4d9b3d	0.012549219
137	0x3a6c694b	0.00090183754
138	0x2bf8f7b8	1.7690216e-12
139	0x3c2f14b6	0.01068609
140	0x3c8a5e35	0.016890625
141	0x3c9cf46e	0.019159522
142	0x3bc69941	0.0060607498
143	0x3ab72f6d	0.0013975926
144	0x3c3cc175	0.011520733
145	0x3b32e84b	0.0027299102
146	0x349d6de8	2.9323496e-07
147	0x3c8d9cf5	0.017286757
148	0x3e345a27	0.17612515
149	0x2dbe4f4f	2.163572e-11
150	0x3c729204	0.014805321
151	0x3b985090	0.0046482757
152	0x3d5626c6	0.05228307
153	0x3e61833f	0.22022723
154	0x3c2aacf9	0.010417216
155	0x3b2662b0	0.0025388412
156	0x2c06e355	1.916874e-12
157	0x2c4b2d6c	2.887325e-12
158	0x3bb9c82e	0.005669615
159	0x3bd029b6	0.0063526286
160	0x3c3db7df	0.011579483
161	0x3aef426d	0.0018254049
162	0x3ce509fb	0.02795886
163	0x3a6059b5	0.0008558289
164	0x3bcdbfda	0.006278974
165	0x3c9d37f7	0.019191725
166	0x3a29e5a9	0.00064810604
167	0x3cd2c2b9	0.025727617
168	0x3c6fea88	0.014643319
169	0x3c14eda4	0.009089861
170	0x3ba61f23	0.0050696298
171	0x3b1251e3	0.002232664
172	0x3b4596a2	0.0030149599
173	0x3c657f11	0.014007346
174	0x3e48bed7	0.1960405
175	0x3c564c90	0.013079777
176	0x3e5ba414	0.2144931
177	0x3ca32ced	0.019918883
178	0x3c4700d1	0.012146191
179	0x3a8e730b	0.0010868026
180	0x2f574039	1.9576953e-10
181	0x3b110dc4	0.002213345
182	0x3c4cf9fc	0.012510773
183	0x3a999421	0.001171712
184	0x3cec6612	0.028857265
185	0x3b1b12b6	0.0023662276
186	0x3c81da50	0.01585117
187	0x3c7f9d0b	0.015601407
188	0x300dc1de	5.1571003e-10
189	0x3ce4b87e	0.027920004
190	0x3ca4ab02	0.020101074
191	0x356149aa	8.3926227e-07
192	0x3cabe1d8	0.020981714
193	0x3c699338	0.014256291
194	0x3bcfd448	0.0063424446
195	0x3aff91ae	0.0019498372
196	0x3c9e996b	0.019360265
197	0x2da5b93e	1.8840592e-11
198	0x3c7ec988	0.0155509785
199	0x3ca180af	0.019714681
200	0x3b5edced	0.0034006194
201	0x36e7fc33	6.9136963e-06
202	0x3d0a7310	0.03380114
203	0x3c75d931	0.015005396
204	0x3e07fa9d	0.13279195
205	0x3c6388f5	0.013887634
206	0x39720358	0.00023080164
207	0x3828ee0f	4.027603e-05
208	0x3e4831a6	0.1955019
209	0x3d1ce249	0.03830174
210	0x3e3d95d1	0.18514182
211	0x3ba7abaa	0.0051168995
212	0x3c1b3762	0.0094736535
213	0x3bf48e25	0.007463234
214	0x3adc47c5	0.0016806057
215	0x2bb4476e	1.2809595e-12
216	0x2f0cd971	1.2810177e-10
217	0x3c78fa3e	0.015196381
218	0x3b81545e	0.003946825
219	0x3d0014fa	0.031270005
220	0x3c403189	0.01173056
221	0x3bf258e9	0.007395853
222	0x3c5b97bd	0.013402876
223	0x3ed2bd75	0.4116017
224	0x3bd25000	0.006418228
225	0x3d964317	0.07337015
226	0x3c890f49	0.016730921
227	0x36c0102a	5.7239276e-06
228	0x3c4a4117	0.01234462
229	0x3d22e6c7	0.039770868
230	0x3d157a69	0.036493693
231	0x2b40ecbb	6.854063e-13

StatefulPartitionedCall/mobilenet_v2_128_0.5/LAYER_95/FusedBatchNormV3/ReadVariableOp:0 f4 [232]
0	0x3a4351a9	0.0007450828
1	0x3ab0ec33	0.0013498127
2	0xbc37043d	-0.011170444
3	0xbb192a0c	-0.002337101
4	0xb89e28ec	-7.5416494e-05
5	0xbbedcd45	-0.007257136
6	0x33b49e64	8.410714e-08
7	0xb45b7fba	-2.0442431e-07
8	0xb3cf3d8b	-9.650383e-08
9	0xbb82978a	-0.00398535
10	0x3a963a01	0.0011461378
11	0xbad9671d	-0.0016586516
12	0xbab1b47f	-0.001355782
13	0x3a288812	0.00064289675
14	0xbb0bfab4	-0.0021359148
15	0x355a8f6b	8.142003e-07
16	0x3ab83331	0.0014053342
17	0x3a514bc5	0.0007984008
18	0x3af5b29d	0.0018745248
19	0x3b8dfd9f	0.0043332125
20	0xba954049	-0.0011386956
21	0xb8368d88	-4.3523993e-05
22	0x3aa0babb	0.0012262681
23	0x335e7e5d	5.180333e-08
24	0xba909bcf	-0.0011032763
25	0xbc10f32e	-0.008847041
26	0xba6bff62	-0.00090025936
27	0x3ae3a3d2	0.0017367548
28	0xbb184030	-0.0023231618
29	0xbba3bb19	-0.004996669
30	0x3a1870ee	0.00058151677
31	0x3b05b6e8	0.002040321
32	0x3accf467	0.0015636802
33	0xbab007a6	-0.0013430014
34	0xbada3325	-0.0016647322
35	0xbacde1f9	-0.0015707604
36	0x352181f4	6.016628e-07
37	0xbaa7a922	-0.0012791494
38	0xba4f89f9	-0.0007916983
39	0x3b20c8c3	0.0024533726
40	0xb894ffa6	-7.104808e-05
41	0x3b053aca	0.002032923
42	0x3aa559ab	0.0012615224
43	0x3aaa9a94	0.0013016039
44	0xbb81a0e6	-0.003955948
45	0xbaada17a	-0.0013246976
46	0x3ad515a8	0.0016257064
47	0xba7407e1	-0.00093090354
48	0xb90a23f9	-0.00013174106
49	0xba412bfe	-0.0007368921
50	0xbbfedf1a	-0.0077780606
51	0xb9cfaaeb	-0.0003960946
52	0x3ab54aeb	0.0013831531
53	0xbaf397ec	-0.0018584705
54	0x3b6cd0ee	0.0036135274
55	0xbb6e98df	-0.0036407036
56	0xbab82729	-0.0014049757
57	0xbbd08634	-0.0063636545
58	0x33534dfb	4.919819e-08
59	0x3aec35bb	0.0018021384
60	0xb92b6a13	-0.00016347347
61	0xbb910299	-0.0044253585
62	0xb90a9828	-0.00013217388
63	0x3b06549b	0.0020497206
64	0x3ac250b7	0.001482508
65	0x3b26611e	0.0025387476
66	0x3c6be40c	0.014397632
67	0x3425df32	1.544802e-07
68	0xb8f2eeaa	-0.00011583914
69	0xbac57f8e	-0.0015067921
70	0x3a9f878e	0.0012171136
71	0xb83a6848	-4.4442975e-05
72	0xb9c94420	-0.00038388465
73	0xba8e7edb	-0.0010871546
74	0xbb588379	-0.0033037348
75	0xbc118e62	-0.008884044
76	0xb3b0a8d6	-8.22635e-08
77	0xba911ace	-0.001107061
78	0x36b76322	5.4653656e-06
79	0x3babc98d	0.0052425326
80	0x3822a821	3.8780392e-05
81	0xbb5b021d	-0.0033418008
82	0xba7aa2e2	-0.00095610146
83	0x334f6844	4.8290772e-08
84	0xba9aa194	-0.0011797422
85	0xb9b5cfe9	-0.00034677915
86	0x3b2f9b57	0.002679547
87	0xbb8cbb3f	-0.0042947824
88	0xbb606542	-0.0034240042
89	0xbb8d4245	-0.0043108785
90	0x3a25be3c	0.00063225976
91	0x3ab09218	0.0013471274
92	0x3aa9f5b2	0.00129669
93	0xbb8c7cc6	-0.004287335
94	0x3ab3617d	0.001368567
95	0xb9619e0f	-0.00021516554
96	0xb39213e2	-6.8022715e-08
97	0x3bce778f	0.0063008736
98	0x3962f185	0.00021643013
99	0x3ad8d390	0.0016542543
100	0xba579a83	-0.0008224623
101	0xb3d049f2	-9.699205e-08
102	0xbb9715ff	-0.0046107764
103	0xbb8ad1d6	-0.00423644
104	0x3b529ff3	0.0032138794
105	0xba9b8910	-0.0011866409
106	0xbac4e72d	-0.0015022509
107	0x3b64655f	0.003485046
108	0xba9e2552	-0.0012065566
109	0x3b18eca4	0.0023334408
110	0x3a75bd88	0.00093742507
111	0x3aaa7b91	0.0013006796
112	0x3ab70acd	0.0013965011
113	0x39ea20d1	0.00044656408
114	0x3869c737	5.5737062e-05
115	0x3ab26ecf	0.0013613346
116	0x33228bda	3.784576e-08
117	0xbb8caebb	-0.0042932904
118	0xb28103da	-1.5019328e-08
119	0xbb9e928a	-0.004839246
120	0xb3e795a7	-1.0783997e-07
121	0xbadbf28e	-0.0016780661
122	0x39404227	0.0001833519
123	0xb6ba818c	-5.558313e-06
124	0x3acdd82d	0.0015704684
125	0xba2a4980	-0.00064959377
126	0x335eaa91	5.1843532e-08
127	0xbb3619ea	-0.0027786442
128	0xb2be45c5	-2.2150639e-08
129	0xb39c3ceb	-7.275397e-08
130	0xbaa310c2	-0.0012440907
131	0x3acfed79	0.0015863619
132	0xb485f57b	-2.495179e-07
133	0xbb4ac4f4	-0.0030940147
134	0x3b26eb86	0.0025469973
135	0xbaac711b	-0.0013156267
136	0x3aa758a3	0.0012767505
137	0xb9a9536b	-0.00032296343
138	0x30eb84ce	1.7136246e-09
139	0x3a91eb50	0.0011132751
140	0xbae0975e	-0.0017134955
141	0xbab4b693	-0.0013787322
142	0xb9c2f6ba	-0.0003718639
143	0x39fbbe19	0.00048016084
144	0x3ad24535	0.0016042354
145	0x391de1fe	0.00015056875
146	0xb7ba1a29	-2.218511e-05
147	0xbab4a739	-0.0013782746
148	0xbbbdfb02	-0.0057977447
149	0x338463a8	6.1648564e-08
150	0x3a9328aa	0.0011227329
151	0xba475b01	-0.0007604808
152	0xbb50f9da	-0.0031887204
153	0xbc2f096f	-0.0106834015
154	0x3b171d6f	0.0023058315
155	0x39a46896	0.0003135844
156	0x31c2fdde	5.6750045e-09
157	0xb3080a49	-3.1674322e-08
158	0x3aa640f6	0.0012684155
159	0x3a70c9da	0.00091853517
160	0x3a993dff	0.001169145
161	0x39eeba92	0.00045533903
162	0xbae07591	-0.0017124881
163	0x39bab87e	0.00035614142
164	0xba62a3bd	-0.0008645615
165	0xbaf2d138	-0.0018525487
166	0xb990d31f	-0.00027623118
167	0xbae18159	-0.0017204686
168	0xba8b1ad9	-0.001061286
169	0x3a9beffa	0.001189708
170	0x3aab54be	0.001307152
171	0xba047f58	-0.0005054376
172	0xba696c60	-0.0008904394
173	0x3aa20014	0.0012359642
174	0x3c0467ac	0.008081358
175	0xbac1e337	-0.0014792447
176	0x3c03c473	0.008042443
177	0xbb061784	-0.0020460794
178	0x3b32a377	0.0027258077
179	0x39da0c80	0.00041589513
180	0x342dd1ef	1.6188254e-07
181	0xba06534c	-0.00051241065
182	0xba9cfaa8	-0.0011976557
183	0x387af110	5.982915e-05
184	0x3b019b99	0.0019776581
185	0xba5de07d	-0.00084639323
186	0xbb2975c4	-0.0025857547
187	0xbabe7b72	-0.0014532639
188	0xb47006ec	-2.235426e-07
189	0x3b01b34f	0.0019790714
190	0xbb1bb6c8	-0.002376007
191	0xb6caef79	-6.0479474e-06
192	0xbb1539cc	-0.0022770045
193	0xbb2604e1	-0.0025332498
194	0xba6655e1	-0.00087866007
195	0x39d025e6	0.00039701088
196	0xbb3001e0	-0.0026856586
197	0xb2149578	-8.648719e-09
198	0x3a57b6f2	0.000822886
199	0xba96ab7b	-0.0011495197
200	0x3a25b806	0.0006321672
201	0x37f94575	2.9715457e-05
202	0x3905dc0b	0.00012765841
203	0x3ac1dfd9	0.0014791443
204	0x3ae1ec4b	0.0017236558
205	0x3a3e8d58	0.00072689867
206	0xb85e05c6	-5.29343e-05
207	0xb75cb51b	-1.3155189e-05
208	0x3bfec27b	0.0077746487
209	0x3ad55966	0.0016277253
210	0xbc24cbe5	-0.010058378
211	0xba64d722	-0.0008729567
212	0x3af4ddac	0.0018681786
213	0x3a88c043	0.0010433275
214	0x39e9469c	0.0004449383
215	0x331c8b99	3.6448544e-08
216	0x33f85c6e	1.1565213e-07
217	0xbac724e7	-0.0015193493
218	0x3a338dd4	0.0006849442
219	0x3b4c3526	0.0031159609
220	0x3abc2448	0.0014354074
221	0xb94e01c6	-0.00019646352
222	0xba3eaa8d	-0.0007273339
223	0x3c0671b3	0.008205819
224	0xba5dae31	-0.00084564375
225	0xba01d188	-0.0004952182
226	0x3aec3315	0.0018020595
227	0xb7a6605e	-1.9833617e-05
228	0x3a8f2c89	0.0010923307
229	0xbb29ff4e	-0.0025939527
230	0xb88698cc	-6.4180786e-05
231	0x332b4297	3.9874603e-08

StatefulPartitionedCall/mobilenet_v2_128_0.5/LAYER_94/Conv2D/ReadVariableOp:0 f4 [232, 24, 1, 1]
0	0xb990b158	-0.00027597952
1	0xbb1e8f20	-0.0024194196
2	0x3a93413d	0.0011234652
3	0x3b899b84	0.004199447
4	0x3aef8bbc	0.0018275897
5	0x3b98bb6a	0.0046610134
6	0x39963db8	0.00028656214
7	0xbabd3a28	-0.0014436888
8	0xbb04ec33	-0.0020282387
9	0x3aca177a	0.0015418374
10	0xbb36c977	-0.0027891078
11	0xb43b9b63	-1.7472262e-07
12	0xba70c689	-0.00091848575
13	0xba8182a2	-0.000988085
14	0xbb030d2c	-0.0019996865
15	0xbae2a2b8	-0.0017290926
16	0xbb919027	-0.004442233
17	0x3a09bc60	0.00052542053
18	0x3aaa66ec	0.0013000644
19	0xbb97ce68	-0.00463276
20	0xbb495f2b	-0.003072689
21	0xb900de37	-0.00012289813
22	0xbba67402	-0.005079747
23	0xbabf5789	-0.0014598231
24	0x3c119085	0.008884554
25	0xbc3cd8dc	-0.011526313
26	0x3c09d4bf	0.008412539
27	0x3beab214	0.007162342
28	0x3ba96fc7	0.0051707956
29	0x3c235adf	0.009970396
30	0x3b7aad82	0.0038250391
31	0xbba36d40	-0.004987389
32	0xbc00ff35	-0.007873346
33	0xbb8d1d90	-0.0043065026
34	0xbbfe06bc	-0.0077522676
35	0x3b682ed0	0.0035428293
36	0xbbb306a5	-0.0054634386
37	0xbbedab6e	-0.007253102
38	0xba35815c	-0.0006923878
39	0xbc018b21	-0.007906706
40	0xbbea735a	-0.0071548643
41	0x3a9abb0c	0.0011805012
42	0xb99dc3bf	-0.00030091216
43	0xbbfe95ec	-0.007769337
44	0xbb00bce4	-0.0019643838
45	0x3b5016ec	0.0031751944
46	0xbc262d0b	-0.010142575
47	0xb9807c4a	-0.00024506665
48	0x3ba8194a	0.005129968
49	0x3c90b0ca	0.017662425
50	0x3ba56fb6	0.0050487174
51	0xbd5310fb	-0.051529866
52	0xbc0f63b0	-0.008751795
53	0xbce7c90e	-0.028294113
54	0xbcc2e826	-0.023792338
55	0x3cf26d71	0.029593201
56	0x3c1fa7a6	0.00974456
57	0xbd7432ec	-0.059618875
58	0x3d460e9b	0.048353773
59	0x3d69c031	0.057068054
60	0xb935fdd5	-0.00017356065
61	0x3c3d43cc	0.011551809
62	0x3d5fa0dd	0.05459677
63	0xbced6a57	-0.02898137
64	0x3d37d961	0.044885043
65	0x39482f57	0.00019091122
66	0x39ff0b2b	0.0004864571
67	0x3db60192	0.08887018
68	0x3cecfcfa	0.028929222
69	0x3d2e9b4e	0.04262858
70	0x3d1059cd	0.03524189
71	0x3b38aad1	0.0028177986
72	0x3c56e67d	0.013116476
73	0xbb8877e0	-0.004164681
74	0x3caf1c05	0.021375665
75	0x3bafd775	0.0053662607
76	0x3d2ee10e	0.042695098
77	0x3a816184	0.0009870981
78	0xbada0ec4	-0.001663648
79	0xb9df443a	-0.00042584707
80	0xbc303bf9	-0.010756486
81	0xbcb47b93	-0.022031581
82	0x3b186909	0.0023255965
83	0x3d0b5373	0.03401513
84	0x3975b53b	0.00023432534
85	0xbcd7e46a	-0.026354033
86	0x3c02b2bb	0.007977183
87	0xbcd45809	-0.025920885
88	0x3c18da5d	0.009329406
89	0xbbb2c1db	-0.0054552383
90	0x39b6c7e4	0.00034862675
91	0x3c821a79	0.015881764
92	0x3b82609a	0.003978801
93	0x3cca88d3	0.024723446
94	0xbb9b713b	-0.0047437227
95	0x3b86b5a7	0.00411101
96	0xba1a8f36	-0.0005895974
97	0x3a252f21	0.0006301273
98	0xb9f258ba	-0.00046223943
99	0xba122d9c	-0.00055762543
100	0xb9f14329	-0.0004601714
101	0xba042f75	-0.0005042472
102	0x37c424fe	2.3382247e-05
103	0x39a364a3	0.00031164763
104	0x3a0f1b94	0.00054591266
105	0x39436b59	0.0001863664
106	0x3a0940ca	0.00052357896
107	0xb9548131	-0.00020266023
108	0x3a1acd1b	0.0005905197
109	0x3a4ede3e	0.0007891393
110	0x39a0cf7c	0.00030672166
111	0x3a414d47	0.0007373881
112	0x3998a561	0.00029114916
113	0xb9b39003	-0.00034248838
114	0x3970c013	0.00022959737
115	0x39947d15	0.00028321953
116	0x38ea7ad1	0.00011180866
117	0xb93686b3	-0.00017407052
118	0x3a1af6c4	0.0005911405
119	0x394d10fc	0.0001955665
120	0xbb0fd1c4	-0.0021945098
121	0x3c5020b5	0.01270311
122	0x3cd1afe5	0.025596568
123	0xbc459200	-0.012058735
124	0x3d190cc6	0.037365697
125	0xbbaa32e1	-0.0051940535
126	0xbb1f1e7a	-0.002427964
127	0x3cdaaaf7	0.02669285
128	0xbb6f7862	-0.003654026
129	0xbcd2e57e	-0.025744196
130	0x3cddbd13	0.027067697
131	0x3d0a8745	0.03382041
132	0x3b0bb0de	0.0021315138
133	0xbca74311	-0.020417722
134	0x3d155aec	0.036463663
135	0xbd0716d4	-0.032980755
136	0x3d311cbc	0.043240294
137	0xbc5a73fb	-0.013333316
138	0x3a8aab42	0.0010579603
139	0x3d71bbe1	0.059017066
140	0xbbb2fe21	-0.0054624234
141	0x3cf6d1b0	0.030129284
142	0x3c381af8	0.011236899
143	0x3c814972	0.015782092
144	0x34b211fa	3.3168163e-07
145	0x34b20b42	3.3163275e-07
146	0x352799c2	6.2436095e-07
147	0x32eee557	2.7811138e-08
148	0xb49ba77a	-2.8992855e-07
149	0x351668cf	5.603187e-07
150	0xb3f0ce16	-1.1213358e-07
151	0xb4d9c1d6	-4.0560434e-07
152	0x34298eee	1.5791349e-07
153	0x32ee977b	2.7775732e-08
154	0xb38396e5	-6.1276104e-08
155	0x33b1e952	8.2846455e-08
156	0x3506035a	4.992377e-07
157	0xb2e298e9	-2.6379398e-08
158	0xb4a7f49b	-3.1284148e-07
159	0xb40ccd04	-1.31131e-07
160	0xb5b762c3	-1.3663306e-06
161	0x3424e17c	1.5355721e-07
162	0x34537aae	1.9695537e-07
163	0xb5254765	-6.157118e-07
164	0xb1b10560	-5.151989e-09
165	0xb4eb8778	-4.3870727e-07
166	0x34a1190e	3.0006817e-07
167	0xb52ca7b3	-6.431903e-07
168	0xb52a1b21	-6.336941e-07
169	0x36162770	2.2374697e-06
170	0x331365a0	3.4318532e-08
171	0xb4d4648e	-3.956124e-07
172	0x35d3bd9b	1.5775908e-06
173	0x352bd432	6.401125e-07
174	0xb2e49c1e	-2.6613687e-08
175	0x35e031d5	1.6703804e-06
176	0x36157fad	2.2277047e-06
177	0x354e0c87	7.675921e-07
178	0xb55f15cf	-8.310571e-07
179	0x33bb186a	8.712307e-08
180	0xb308eca3	-3.1880187e-08
181	0x34baf07f	3.4820184e-07
182	0x353e3dcc	7.087044e-07
183	0x34c03e34	3.5808046e-07
184	0xb328fe09	-3.934659e-08
185	0x3481161d	2.4044212e-07
186	0x3489e764	2.5686597e-07
187	0x35cc8e4a	1.5240596e-06
188	0xb52c81cb	-6.4263867e-07
189	0x332bd017	4.0003297e-08
190	0xb447cb35	-1.8607246e-07
191	0x34766087	2.2945652e-07
192	0xb510b925	-5.39136e-07
193	0xb4384e6a	-1.7164862e-07
194	0x339c4336	7.276542e-08
195	0xb192e84a	-4.2755675e-09
196	0xb3b09520	-8.222764e-08
197	0xb44b95cb	-1.8960343e-07
198	0x34da5d02	4.0673336e-07
199	0xb48b7b0a	-2.598029e-07
200	0x347cbc07	2.3537733e-07
201	0x33c2a078	9.063018e-08
202	0x350afc9f	5.177662e-07
203	0x34ae7743	3.24968e-07
204	0xb39f3ac0	-7.414701e-08
205	0x346e39da	2.2186524e-07
206	0x34ad8de3	3.2326997e-07
207	0x35600423	8.345252e-07
208	0x35138136	5.4949794e-07
209	0xb4c4598d	-3.6573002e-07
210	0x34d18561	3.902633e-07
211	0x3583f22b	9.830741e-07
212	0x3421ab5d	1.5056635e-07
213	0x348a2b43	2.573598e-07
214	0x331f149b	3.7038813e-08
215	0xb434664b	-1.680102e-07
216	0xbba09c90	-0.004901476
217	0x3c5c90bd	0.013462243
218	0x3b88dd9e	0.0041768095
219	0x3b160864	0.0022893185
220	0x3c084da4	0.008319292
221	0xbba49b7d	-0.0050234185
222	0xbc36f65a	-0.011167133
223	0x3c71e863	0.014764878
224	0x3c02fbf5	0.007994642
225	0x3c5a27cc	0.013315152
226	0x3cdc5c53	0.026899492
227	0x3bea3e94	0.007148573
228	0x3b888652	0.004166403
229	0x3b023dfc	0.0019873371
230	0x3c3e747d	0.011624453
231	0xbbda8eea	-0.0066698687
232	0x3ce4d865	0.027935216
233	0x3c1dffb3	0.009643483
234	0x3afe8640	0.0019418672
235	0x3cccd9f7	0.025006277
236	0xbc752efa	-0.014964813
237	0x3c21948f	0.009862079
238	0x3c2152e3	0.009846422
239	0xbb016580	-0.0019744337
240	0x3bca04d8	0.006165128
241	0xbc065c69	-0.008200743
242	0x3b9af26d	0.0047286064
243	0x3bf3319e	0.0074216863
244	0x3b56e1d3	0.003278841
245	0x3bffd05c	0.007806821
246	0x3b33cb42	0.0027434384
247	0xbb90d59e	-0.0044199964
248	0xbbcb4a7a	-0.0062039467
249	0xba1a2018	-0.0005879416
250	0xbbcee335	-0.0063137063
251	0x3a93e573	0.0011283591
252	0xbbb6227d	-0.0055583105
253	0xbba63bfb	-0.005073068
254	0xbb83f4d0	-0.0040269867
255	0xbb96ee09	-0.0046060127
